data/GNN/single_l5_bPfcand_S1.pt (torch, 24627 bytes, 33 tensors)

pf_encode.0.weight f4 [16, 4]
0	0xbf356c79	-0.7086864
1	0x3e5e1ecd	0.21691437
2	0xbd820e24	-0.06350353
3	0xbe4f8816	-0.20266756
4	0x3e8c3401	0.27383426
5	0x3d1a0ced	0.037609983
6	0xbe2d10e9	-0.16900982
7	0x3f3a2d96	0.7272581
8	0x3ed45898	0.41473842
9	0x3ea79bca	0.32736045
10	0xba8a8270	-0.0010567438
11	0x3e437d35	0.19090731
12	0x3ec1c100	0.3784256
13	0xbbc43c80	-0.0059886575
14	0x3f63ba47	0.8895611
15	0x3f159ea7	0.5844521
16	0x3dd8912c	0.10574564
17	0x3ebad9ab	0.36494192
18	0xbebd9f8e	-0.37035793
19	0x3ddbc690	0.10731232
20	0x3e5594e7	0.20857583
21	0x3e9627d2	0.29327255
22	0xbef0264a	-0.46904212
23	0x3f119668	0.56870127
24	0x3d9b67af	0.075881355
25	0xbf6b3141	-0.9187203
26	0x3f6472bd	0.89237577
27	0x3f884c6f	1.0648326
28	0x3ed9f48c	0.42569387
29	0xbea09b7c	-0.31368625
30	0xbef2ae06	-0.47398394
31	0x3eaceac4	0.33772862
32	0x3e879eaf	0.26488253
33	0x3f0a697c	0.54067206
34	0xbf23f530	-0.64046
35	0xbe54eb01	-0.20792772
36	0x3dec78ab	0.11546453
37	0x3d2b89c7	0.04187944
38	0xbf1d9369	-0.61553055
39	0xbf4cdd29	-0.80024964
40	0x3e1fe58a	0.15614906
41	0xbede9e81	-0.43480304
42	0xbf4bdf0f	-0.79637235
43	0x3e5412ba	0.20710269
44	0x3eb6b016	0.35681218
45	0xbf0cfa40	-0.5506935
46	0x3d970246	0.073734805
47	0x3f15fff1	0.5859366
48	0xbecb4807	-0.3970339
49	0x3e99521f	0.29945466
50	0xbe4144a8	-0.18873847
51	0x3e5c09d0	0.21488118
52	0xbf450d27	-0.76973194
53	0x3ed8dd59	0.42356375
54	0xbec48fbc	-0.3839091
55	0x3c4b1854	0.012395937
56	0x3e858eb2	0.2608543
57	0x3e9efcf4	0.31052363
58	0x3f183dc3	0.5946924
59	0xbcb1107c	-0.021614306
60	0xbf55b56b	-0.83479947
61	0xbd7e663b	-0.062109213
62	0x3edf4001	0.4360352
63	0xbdfd7cec	-0.123773426

pf_encode.0.bias f4 [16]
0	0x3eee943e	0.46597475
1	0x3f3d02e2	0.73832524
2	0x3edde1f4	0.4333645
3	0x3dd0c73f	0.10194253
4	0xbf1d148d	-0.61359483
5	0x3f3fcb62	0.7491971
6	0x3f95593e	1.166786
7	0x3f0ff874	0.56238484
8	0x3e79f960	0.24411535
9	0xbf5480f4	-0.83009267
10	0x3e96c522	0.29447275
11	0x3e1eaf27	0.15496503
12	0xbea3e6c6	-0.32012004
13	0xbd8e8087	-0.069581084
14	0xbdf0cef8	-0.11758226
15	0xbdc767bc	-0.09736583

pf_encode.2.weight f4 [16, 16]
0	0xbee8e9fa	-0.4549101
1	0xbda84696	-0.08216588
2	0xbdf6fc40	-0.120598316
3	0x3dedbc6b	0.116082035
4	0x3d48eabc	0.049051985
5	0xbd5b62bf	-0.05356097
6	0xbe958b0f	-0.29207656
7	0xbc2c50cb	-0.010517309
8	0x3e7265da	0.23671666
9	0x3d086857	0.03330263
10	0x3e77503a	0.24151698
11	0x3e74d37b	0.23908798
12	0xbe522216	-0.20520815
13	0xbe23c617	-0.15993534
14	0xbaa64d77	-0.0012687881
15	0x3c14d286	0.009083396
16	0xbf6e161a	-0.93002474
17	0x3e03cedb	0.12871878
18	0x3ceecf82	0.029151682
19	0x3ea083d3	0.31350574
20	0xbef0f494	-0.47061598
21	0x3dd2cd0d	0.102930166
22	0x3f813d72	1.0096877
23	0xbc8c740f	-0.017145185
24	0xbebc0342	-0.36721236
25	0xbf40a547	-0.75252193
26	0xbf177f36	-0.59178483
27	0x3c14b3a2	0.009076031
28	0xbf61acf3	-0.88154525
29	0xbf58f4dc	-0.84748626
30	0x3ef4a6b6	0.4778344
31	0xbf2bf62c	-0.67172503
32	0x3df22f64	0.11825445
33	0xbe762f88	-0.24041569
34	0xbea25f97	-0.31713554
35	0xbe2636e8	-0.16231883
36	0x3f19b518	0.6004195
37	0xbf10a8e2	-0.56507695
38	0xbf00a951	-0.50258356
39	0xbe2ab697	-0.16671215
40	0x3d4a18c4	0.049340025
41	0x3ee951a8	0.4557011
42	0xbe4b65b5	-0.19863017
43	0xbd024d72	-0.03181214
44	0x3e950e5d	0.2911252
45	0x3dd408ee	0.10353266
46	0x3c9cc140	0.019135118
47	0x3ef544a6	0.47903937
48	0xbf7b809f	-0.98243135
49	0x3dabd976	0.08391087
50	0x3d800473	0.062508486
51	0xbe12afeb	-0.1432492
52	0xbedf4e10	-0.43614244
53	0x3e3e4f89	0.18585028
54	0x3ddfa240	0.109196186
55	0xbd8e2a5a	-0.06941672
56	0xbd53ca14	-0.05170639
57	0xbea94856	-0.33063
58	0xbdf47b05	-0.119375266
59	0x3de40416	0.11133592
60	0xbf21d5f8	-0.63217115
61	0xbf3a2598	-0.72713614
62	0xbddd40c1	-0.108033665
63	0xbefa95eb	-0.48942503
64	0xbe4b1a11	-0.19834162
65	0x3d035c08	0.03207019
66	0xbde23588	-0.110453665
67	0x3eab419c	0.33448493
68	0xbe082c99	-0.13298263
69	0xbe95302d	-0.29138318
70	0xbdfb531a	-0.1227171
71	0xbe9fd1f9	-0.31214884
72	0x3d8b91c1	0.0681491
73	0xbe22462e	-0.15847084
74	0xbf0c0957	-0.5470175
75	0x3e523940	0.20529652
76	0x3e4070c6	0.1879302
77	0x3e8094d7	0.25113556
78	0x3e91c81e	0.2847299
79	0x3e0f8380	0.14015007
80	0x3e81bad9	0.25337866
81	0xbf2640a8	-0.6494241
82	0xbedff4cb	-0.4374145
83	0xbf0474f8	-0.5174098
84	0x3ee02698	0.43779445
85	0xbe9e7ee9	-0.309562
86	0xbee52767	-0.44756624
87	0xbeeb4c4a	-0.4595664
88	0xbf1524a8	-0.5825906
89	0x3f22976b	0.63512295
90	0xbe823636	-0.25431985
91	0xbe3dd6fc	-0.18539041
92	0x3eee5f5b	0.46557125
93	0x3ea92c32	0.3304153
94	0xbd56235b	-0.05227981
95	0x3e77a380	0.24183464
96	0xbf457d01	-0.77143866
97	0x3cbb198a	0.022839326
98	0xbd7ef381	-0.062243942
99	0x3e84a01c	0.25903404
100	0xbe637c03	-0.22215275
101	0xbe283fe6	-0.16430625
102	0x3e7c9275	0.24665244
103	0x3e514246	0.20435438
104	0x3e130799	0.14358367
105	0xbd5908a1	-0.052986745
106	0x3e2add7f	0.16686057
107	0x3df5f82a	0.12010224
108	0xbec23175	-0.37928358
109	0xbf2ce635	-0.6753877
110	0xbe353627	-0.17696439
111	0xbe8c31a1	-0.27381614
112	0x3e955035	0.29162756
113	0x3ea10309	0.31447628
114	0x3e3adfea	0.18249479
115	0xbd0a4ef4	-0.0337667
116	0xbdcfceaa	-0.1014684
117	0x3e4ade73	0.1981142
118	0x3d609d60	0.054837584
119	0x3e74c29d	0.23902364
120	0x3e164839	0.14675988
121	0xbcab4178	-0.020905241
122	0x3eae629b	0.34059605
123	0xbde52941	-0.11189509
124	0xbd746e29	-0.05967537
125	0x3def8e86	0.11697106
126	0xbecc9bd3	-0.39962634
127	0x3e17b094	0.14813453
128	0xbf6371b7	-0.8884539
129	0x3e3a2395	0.18177636
130	0x3debd72a	0.11515649
131	0x3df627c1	0.12019301
132	0xbef3baff	-0.47603604
133	0xbe775b8d	-0.24156018
134	0x3eb8aa3d	0.36067382
135	0x3e64aaf1	0.22330834
136	0xbdbfcfe0	-0.09365821
137	0xbf13956c	-0.57649875
138	0x3e577fd1	0.21044852
139	0x3e632bb3	0.22184639
140	0xbf17a60c	-0.5923774
141	0xbf5b2b15	-0.8561261
142	0xbe990dc2	-0.2989331
143	0xbf1871cc	-0.5954864
144	0x3e36823a	0.17823115
145	0xbdca8c4e	-0.09890042
146	0xbede1a2b	-0.4337934
147	0xbebf4ad8	-0.3736179
148	0x3f435854	0.76306653
149	0xbe991e15	-0.29905763
150	0xbf1b7f9b	-0.60741585
151	0xbf04da35	-0.5189546
152	0xbdbdbc3c	-0.092644185
153	0x3df3341f	0.11875176
154	0xbe6b34c6	-0.2296935
155	0xbef124d6	-0.47098416
156	0x3f3355e9	0.70052963
157	0x3f1e3a5c	0.618078
158	0x3e9dfbb7	0.30856106
159	0x3eece9e9	0.4627221
160	0xbf0b74f8	-0.54475355
161	0x3e1fcabd	0.15604682
162	0x3e8649b4	0.26228106
163	0x3e53ac0d	0.20671101
164	0xbe1a8cfd	-0.15092845
165	0x3d0e2419	0.034702394
166	0xbd492c75	-0.049114663
167	0x3e81791a	0.25287706
168	0x3e85db39	0.26143816
169	0x3d4da035	0.050201613
170	0xbe01d03b	-0.1267709
171	0x3e7b093d	0.24515243
172	0xbedbd109	-0.4293292
173	0xbe096a2f	-0.13419412
174	0x3e91ffcd	0.28515473
175	0xbef2a4bb	-0.47391304
176	0x3e808103	0.25098428
177	0xbe980468	-0.29690862
178	0xbf123d1c	-0.57124496
179	0xbec4c6dc	-0.38432968
180	0x3f145061	0.5793515
181	0xbef9d8c8	-0.48798203
182	0xbefc268b	-0.49248156
183	0xbe20215e	-0.15637729
184	0xbe28e91d	-0.16495176
185	0x3e96953c	0.29410732
186	0xbf0c8e4f	-0.54904646
187	0xbe1c5e7c	-0.15270418
188	0x3ec00884	0.37506497
189	0x3df675dd	0.120341994
190	0xbe1b5d81	-0.15172388
191	0x3dece0d6	0.115663216
192	0xbf6bf346	-0.9216808
193	0x3dfe60aa	0.12420781
194	0x3e4b0472	0.19825915
195	0x3d959899	0.07304496
196	0xbecdfff3	-0.40234336
197	0x3e7c49b8	0.24637496
198	0x3efa49a3	0.48884305
199	0x3e039d17	0.12852894
200	0x3de51806	0.11186223
201	0xbeb688e7	-0.35651323
202	0xbd8201c7	-0.06347995
203	0xbe0dde46	-0.13854322
204	0xbf0b026b	-0.54300565
205	0xbf385442	-0.7200357
206	0xbdf50ed8	-0.11965722
207	0xbf3d0c62	-0.7384702
208	0xbe867136	-0.26258248
209	0x3de4a33a	0.111639455
210	0x3e2cf4dc	0.16890281
211	0x3ea442bf	0.32082173
212	0xbea1b0cb	-0.31580195
213	0xbe7b3d29	-0.2453505
214	0x3ec59769	0.3859208
215	0x3e753ae3	0.23948245
216	0xbea95ddb	-0.3307942
217	0xbea29262	-0.31752306
218	0xbea590cc	-0.32337034
219	0x3e666410	0.22499108
220	0xbe4df6f4	-0.20113736
221	0xbe21d16e	-0.15802547
222	0x3d28e5d2	0.0412348
223	0xbd1c5fc2	-0.03817726
224	0xbd6628ab	-0.056191128
225	0xbea4396d	-0.32075062
226	0xbf05b5e6	-0.5223068
227	0xbefb7c25	-0.49118152
228	0x3ea9e87a	0.33185178
229	0xbeb83237	-0.3597581
230	0xbecbafce	-0.39782566
231	0xbefdbcd7	-0.49558136
232	0xbda4eb48	-0.08052689
233	0x3e9ec35d	0.31008425
234	0xbe1eaec6	-0.15496358
235	0xbea2b157	-0.31775925
236	0x3df09f91	0.11749185
237	0x3eecbab4	0.46236193
238	0x3c7bc963	0.015367839
239	0x3f035103	0.5129549
240	0xbe94f588	-0.29093575
241	0xbc42243a	-0.011849457
242	0x3e2b55ae	0.16731903
243	0x3e02d516	0.12776598
244	0x3e8455a6	0.25846595
245	0x3e8292e0	0.25502682
246	0xbef18da3	-0.47178373
247	0x3e04353e	0.12910935
248	0x3e994b33	0.29940185
249	0x3eb35c8e	0.3503155
250	0x3e01caf8	0.12675083
251	0xbe0716e4	-0.13192326
252	0xbe99999c	-0.30000007
253	0xbe90411b	-0.28174672
254	0xbe8a11dc	-0.2696675
255	0xbf334e9b	-0.7004182

pf_encode.2.bias f4 [16]
0	0xbe6f618b	-0.23377053
1	0x3f6520e3	0.89503306
2	0xbf1f0277	-0.62113136
3	0x3e66a9d6	0.22525725
4	0xbe796304	-0.24354178
5	0xbf1ee780	-0.6207199
6	0x3e81e82e	0.25372452
7	0x3d57c135	0.05267449
8	0x3ed0810d	0.40723458
9	0xbf1c5082	-0.61060345
10	0xbd34222b	-0.043977898
11	0xbf0c92e0	-0.54911613
12	0x3ec0e702	0.37676245
13	0x3ebae78b	0.36504778
14	0xbe6851af	-0.2268741
15	0x3ec71222	0.38881022

conv.nn.0.weight f4 [16, 32]
0	0xbe8be172	-0.2732044
1	0xbebf87e3	-0.3740836
2	0xbe35c211	-0.17749812
3	0xbefb890b	-0.49127993
4	0xbf0373f5	-0.5134881
5	0xbe2f47ce	-0.17117235
6	0xbf0e8f01	-0.55686957
7	0xbe60a271	-0.21936966
8	0xbf7abab2	-0.97941124
9	0xbe775ccd	-0.24156494
10	0xbf68b1b6	-0.90896165
11	0x3cf53b05	0.02993537
12	0xbe90d99c	-0.28291023
13	0xbc1c0eb1	-0.009524987
14	0xbe811eb4	-0.25218737
15	0xbe523f3b	-0.20531933
16	0xbd4e9488	-0.05043462
17	0xbd4dd0eb	-0.050248068
18	0xbe4665b9	-0.19374742
19	0x3eeaf506	0.45890063
20	0xbd112dc7	-0.035444047
21	0x3cf07418	0.029352233
22	0x3ee15026	0.4400646
23	0xbd32adca	-0.04362277
24	0xbcb88364	-0.02252359
25	0x3d592aa1	0.05301917
26	0xbd0e6304	-0.034762397
27	0x3cd220b9	0.025650369
28	0x3ecb727b	0.3973578
29	0xbd204c5c	-0.039135322
30	0x3d9d90a7	0.07693606
31	0xbd3ae365	-0.045627017
32	0x3dc65074	0.09683314
33	0xbd82836b	-0.06372722
34	0x3eb6b5f9	0.3568571
35	0x3e603235	0.21894152
36	0x3e3cec75	0.18449576
37	0xbe0212ed	-0.12702532
38	0x3e1bdc5b	0.15220778
39	0xbdfa2be9	-0.122154064
40	0xbe0f71df	-0.14008282
41	0xbc89c4c4	-0.016817458
42	0x3e04e342	0.12977317
43	0xbd296e5d	-0.041365016
44	0x3e47c49c	0.19508594
45	0xbdcf2016	-0.10113542
46	0x3ea8551e	0.3287744
47	0x3d0c7869	0.03429452
48	0x3e318812	0.17337063
49	0xbee045b1	-0.4380317
50	0xbe396d38	-0.1810807
51	0x3f067c46	0.52533376
52	0xbecfda05	-0.40596023
53	0xbd2b6f24	-0.04185404
54	0x3e19878a	0.1499311
55	0x3e242318	0.16029012
56	0x3dc3fd7b	0.09569832
57	0x3ca1b841	0.01974118
58	0x3e2637b3	0.16232185
59	0xbe14c17c	-0.14526933
60	0x3e6a62ef	0.22889303
61	0xbe2bd18d	-0.16779156
62	0xbe473805	-0.19454964
63	0x3eb25d97	0.34837028
64	0x3d8669c7	0.06563144
65	0x3da47525	0.08030156
66	0x3d9416d1	0.072309144
67	0xbe449fa8	-0.19201529
68	0x3e9a0072	0.30078465
69	0xbd7dfeb8	-0.062010497
70	0xbe90dbec	-0.28292787
71	0x3d0c0fe3	0.03419484
72	0xbe8768c0	-0.26447105
73	0xbc0c7d7d	-0.008574841
74	0x3d0dd12f	0.03462332
75	0x3df9493f	0.12172174
76	0xbed2dc10	-0.4118352
77	0x3e02595b	0.12729399
78	0x3cc96eb8	0.024588928
79	0x3e19a5ba	0.15004626
80	0xbe6a9e2b	-0.22911899
81	0x3dc02727	0.09382468
82	0xbe29edf3	-0.16594677
83	0x3dd970c3	0.10617211
84	0xbe9883f1	-0.29788163
85	0xbe1dd84e	-0.15414545
86	0x3e8c3bcd	0.27389374
87	0x3e51a5d8	0.2047342
88	0x3c28a106	0.010292297
89	0xbe5056a8	-0.20345557
90	0xbe05ee87	-0.13079272
91	0x3e1d82de	0.15381953
92	0x3d93972e	0.072065696
93	0x3e106e17	0.14104496
94	0xbe1824dd	-0.14857812
95	0x3ddc3dd3	0.107539795
96	0x3dac1e16	0.08404176
97	0xbe427d29	-0.18993057
98	0xbd39a787	-0.045325782
99	0xbe9b9274	-0.30385172
100	0xbe149e78	-0.14513576
101	0x3e100958	0.14066064
102	0xbeb08e23	-0.34483442
103	0xbe952a23	-0.2913371
104	0xbeb1838c	-0.34670675
105	0xbdaaacba	-0.08333726
106	0xbed759b8	-0.42060637
107	0x3dff3f0a	0.124631956
108	0xbe793664	-0.24337155
109	0x3d7143c1	0.058902506
110	0x3e60f382	0.21967891
111	0xbe883557	-0.26603195
112	0x3bc627c5	0.0060472214
113	0x3c026b11	0.007960097
114	0xbe19def5	-0.15026458
115	0x3ec51522	0.38492686
116	0xbd27f601	-0.041006092
117	0xbe19b5a6	-0.150107
118	0x3e233844	0.15939432
119	0xbc820be9	-0.01587482
120	0x3c8dfd4e	0.0173327
121	0xbe085eeb	-0.13317458
122	0x3d8ab06b	0.0677193
123	0x3dcba05d	0.09942696
124	0x3d8b1c59	0.06792516
125	0xbc95c500	-0.018282413
126	0x3d1835d0	0.037160695
127	0xbdc4afb1	-0.09603823
128	0x3e4e1752	0.20126083
129	0x3dc1bba8	0.09459621
130	0x3e6afc7d	0.22947879
131	0xbe9002a8	-0.28127027
132	0x3e1ad4da	0.15120259
133	0x3e23b44e	0.1598675
134	0xbd2a54c4	-0.041584745
135	0x3e3ad341	0.1824465
136	0xbe8a8eb2	-0.27061993
137	0x3ccd6abf	0.025075315
138	0xbda520a0	-0.08062863
139	0xbd97bd76	-0.07409184
140	0xbe97e1cd	-0.2966446
141	0xbe30a1f4	-0.1724928
142	0x3eb4d716	0.35320348
143	0xbc1d1db9	-0.009589606
144	0xbf13bf93	-0.57714194
145	0x3dfbebb8	0.12300819
146	0xbe542dab	-0.20720546
147	0x3e9e33c7	0.30898878
148	0xbe3b7152	-0.18304947
149	0x3d4ac9c6	0.049508832
150	0x3ed451d3	0.41468677
151	0xbe235809	-0.15951551
152	0x3dccc5cb	0.099986635
153	0xbe0f4a04	-0.13993078
154	0x3d87b20c	0.066257566
155	0x3bd2bc2f	0.0064311246
156	0x3eb041b9	0.34425142
157	0x3d08b550	0.033376038
158	0xbebe4f4e	-0.3716988
159	0xbe8708ae	-0.2637381
160	0x3dc37c20	0.09545159
161	0xbde84fa4	-0.11343315
162	0x3e47eb34	0.19523317
163	0x3e9b2901	0.3030472
164	0x3e80930b	0.25112185
165	0x3de98d48	0.114039004
166	0x3e34e823	0.17666678
167	0x3e4f1d8c	0.20226115
168	0xbd8f50a3	-0.06997802
169	0xbe6a7c13	-0.22898893
170	0x3db94a2c	0.0904735
171	0x3d9de45e	0.07709573
172	0xbd129982	-0.035790928
173	0xbe25bdfc	-0.16185755
174	0x3ecd9764	0.40154564
175	0x3d5efd68	0.054440886
176	0xbcc9f367	-0.024652196
177	0x3da7ff65	0.082030095
178	0x3e051c47	0.12999068
179	0x3e6348b7	0.22195707
180	0x3e5c4598	0.21510923
181	0xbd91427d	-0.0709276
182	0xbdcb09fc	-0.09914014
183	0x3d63a537	0.055577483
184	0xbdc259fb	-0.09489819
185	0x3e1c8f72	0.15289095
186	0xbd981a34	-0.07426873
187	0x3db2e34c	0.0873476
188	0x3c7c9894	0.015417237
189	0x3e17b9c2	0.14816955
190	0xbdaef39e	-0.0854256
191	0x3d96f097	0.073701076
192	0xbe4e7aac	-0.20163983
193	0xbed911c9	-0.42396381
194	0x3cc079ff	0.023495672
195	0xbef0e798	-0.47051692
196	0x3dbf5123	0.093416475
197	0xbe09b4e6	-0.13447914
198	0xbec04a1a	-0.37556535
199	0x3b3eef0f	0.002913419
200	0xbf04b4c9	-0.51838356
201	0xbe6c6d3c	-0.23088545
202	0xbf076763	-0.5289213
203	0xbc4b1a67	-0.0123964315
204	0xbeb7aff6	-0.35876435
205	0x3daffd6a	0.08593257
206	0x3bc64b11	0.006051429
207	0xbf03a2d3	-0.51420325
208	0x3da356cd	0.0797554
209	0xbcac7771	-0.021053048
210	0xbe8eef9f	-0.2791719
211	0x3ecce877	0.40021107
212	0xbc938d69	-0.018011766
213	0xbc5fb029	-0.01365284
214	0x3e1dcd4a	0.15410343
215	0xbc85b63e	-0.016322251
216	0xbb07edff	-0.0020741222
217	0x3c11a23f	0.00888878
218	0x38e95ce9	0.00011127612
219	0xbd2954a7	-0.041340496
220	0xbe0f49ad	-0.13992949
221	0xbcd397f1	-0.025829287
222	0xbdca3121	-0.09872652
223	0x3c125f5d	0.008933869
224	0xbdeb827d	-0.11499498
225	0x3e4c20b1	0.19934346
226	0xbd85aa58	-0.06526631
227	0xbdd9f863	-0.10643079
228	0x3e034076	0.12817559
229	0x3dbd0972	0.09230317
230	0xbdf9113a	-0.12161489
231	0x3e1c1607	0.15242778
232	0xbd3de5ae	-0.046361618
233	0x3c0fa330	0.008766934
234	0x3d912074	0.07086268
235	0x3def93c4	0.11698106
236	0xbc873e23	-0.016509121
237	0xbbef5ffd	-0.007305144
238	0xbdab9b15	-0.08379189
239	0x3c3cebea	0.011530856
240	0x3e8731f8	0.2640531
241	0x3bfccd23	0.007714884
242	0xbeb19936	-0.34687203
243	0x3efd59d0	0.49482584
244	0xbeee50e1	-0.4654608
245	0x3e48611b	0.19568293
246	0x3e7db3d9	0.24775638
247	0xbe84481a	-0.2583626
248	0x3e5ce0ff	0.21570204
249	0x3db5a9a5	0.08870248
250	0x3e5120ad	0.20422621
251	0x3e5ced7c	0.21574968
252	0x3dccf9ce	0.10008584
253	0x3e35f8be	0.17770669
254	0xbefa94d4	-0.48941672
255	0x3dbd7eee	0.092527255

conv.nn.0.bias f4 [16]
0	0x3ec5f489	0.38663128
1	0xbe8c5675	-0.2740971
2	0xbebf3ade	-0.373496
3	0xbe32466c	-0.17409676
4	0xbe9c3ab0	-0.30513525
5	0xbe2a9695	-0.16659005
6	0xbd9500c6	-0.07275538
7	0x3d4ea7f0	0.050453126
8	0xbe695aa3	-0.22788481
9	0x3d3b1453	0.04567368
10	0xbe38b618	-0.18038213
11	0x3d036b12	0.032084532
12	0x3e7ffa14	0.24997741
13	0xbd874d3f	-0.066065304
14	0xbe1c43e0	-0.15260267
15	0xbe9e0cab	-0.3086904

output.0.weight f4 [8, 16]
0	0xbf9ffdc7	-1.2499322
1	0xbdeb49a0	-0.11488652
2	0xbe298a22	-0.165566
3	0xbdba4c38	-0.09096569
4	0x3e0dad92	0.13835743
5	0x3db30aef	0.0874232
6	0xbecdaca9	-0.40170792
7	0xbe65c2fb	-0.2243766
8	0xbd569c7e	-0.052395336
9	0x3e4851c3	0.1956244
10	0xbdb8207d	-0.08990572
11	0x3d82379f	0.06358265
12	0xbf4ca6b8	-0.7994189
13	0x3dafe7b5	0.085891165
14	0x3e69125b	0.22760908
15	0xbeb432a0	-0.35194874
16	0xbe99778e	-0.29974025
17	0x3ed0f19c	0.40809333
18	0x3cf884e2	0.030336801
19	0xbe3afb3a	-0.18259898
20	0x3e2d48e0	0.16922331
21	0x3e2518ea	0.16122785
22	0x3e363c35	0.17796405
23	0xbeb83f78	-0.35985923
24	0xbe434d01	-0.19072343
25	0xbde4b17f	-0.11166667
26	0xbe6d53f2	-0.23176554
27	0x3ec2f5d8	0.3807819
28	0x3d964812	0.07337965
29	0xbeb62b9a	-0.3558014
30	0x3e035419	0.1282505
31	0xbc20fbe3	-0.0098256795
32	0x3f91994b	1.1374906
33	0xbe97e05e	-0.29663366
34	0xbe1cea2d	-0.15323706
35	0x3e9390e8	0.28821492
36	0xbe4338c8	-0.19064629
37	0xbec815ba	-0.39079076
38	0x3f13f18b	0.5779044
39	0x3d341cca	0.043972768
40	0xbc386d01	-0.011256457
41	0xbd96f0a1	-0.07370115
42	0x3c7756dc	0.0150963925
43	0xbe285cfe	-0.16441724
44	0x3f619ae5	0.88126975
45	0x3d61ac24	0.055095807
46	0xbd8a0b3a	-0.067404225
47	0xbd1d1319	-0.03834829
48	0xbf7234e9	-0.94611984
49	0xbe5ce64c	-0.21572226
50	0x3e5192d0	0.20466161
51	0xbe88bc9d	-0.267064
52	0xbd1699c3	-0.036767732
53	0x3de17088	0.11007792
54	0xbf07d4f5	-0.5305932
55	0x3e794ba6	0.24345264
56	0xbe10048b	-0.14064233
57	0x3e5d859b	0.21632998
58	0xbd8f0126	-0.06982641
59	0x3e545fff	0.20739745
60	0xbf59b84d	-0.85046846
61	0xbdcf40a5	-0.10119752
62	0x3e88c841	0.26715282
63	0xbe38ada2	-0.18034986
64	0xbf8b105d	-1.0864369
65	0x3daebf6a	0.08532603
66	0xbe33fa31	-0.17575909
67	0xbd114148	-0.035462648
68	0x3cbf86ec	0.023379765
69	0x3e222334	0.15833741
70	0xbe30fb40	-0.17283344
71	0x3e18b32e	0.14912102
72	0xbe08a49a	-0.1334404
73	0xbd92549b	-0.071450435
74	0x3de03d0b	0.10949143
75	0x3d4a3a97	0.049372282
76	0xbf358c1b	-0.7091691
77	0x3da1bdae	0.07897507
78	0x3d93b7bd	0.0721278
79	0x3c2e88fe	0.010652779
80	0xbf1b5703	-0.60679644
81	0xbd4bf735	-0.049796302
82	0x3e16ac03	0.14714055
83	0xbe8756b9	-0.26433352
84	0x3db5abf1	0.08870686
85	0xbea2135c	-0.31655395
86	0xbe6df7b1	-0.23239018
87	0x3e890f86	0.26769656
88	0x3d2648cf	0.04059678
89	0x3e93ed55	0.28892007
90	0xbd72a0d7	-0.05923542
91	0x3e4209f5	0.18949111
92	0xbea06b0e	-0.31331676
93	0xbe22dbba	-0.15904132
94	0x3e841970	0.25800657
95	0xbe67b8ee	-0.22629139
96	0xbf661af6	-0.8988489
97	0x3e57178b	0.21005075
98	0x3ba2feba	0.0049742134
99	0xbea95c95	-0.33078447
100	0xbe82ebeb	-0.25570616
101	0x3d284d99	0.041089628
102	0xbdf72473	-0.12067499
103	0x3e5e9570	0.21736693
104	0xbddf309c	-0.108979434
105	0x3b53afbf	0.0032300798
106	0x3dfd3d75	0.123652376
107	0x3dc304fd	0.09522436
108	0xbf156100	-0.58351135
109	0xbe4fafdd	-0.2028193
110	0x3d617fac	0.055053398
111	0x3d04c224	0.03241171
112	0xbdceedef	-0.10103976
113	0x3e05134c	0.12995642
114	0xbe8386c2	-0.2568875
115	0xbe986834	-0.29767
116	0x3e52daa5	0.20591219
117	0x3ea9d36e	0.3316912
118	0xbeafd97a	-0.3434561
119	0xbeb4aca5	-0.35287967
120	0x3e100650	0.14064908
121	0xbee25818	-0.44207835
122	0xbebf7c40	-0.37399483
123	0x3e0fa05d	0.14026017
124	0xbea2624c	-0.3171562
125	0xbe68a08c	-0.22717494
126	0xbd5c6ba6	-0.0538136
127	0x3eb54acb	0.35408625

output.0.bias f4 [8]
0	0x3e4f10d3	0.20221262
1	0xbd0303a3	-0.03198589
2	0x3d8c72c3	0.068578266
3	0xbe5a9779	-0.21346845
4	0xbe71be3e	-0.23607728
5	0x3e23695f	0.15958165
6	0xbe1b30b1	-0.15155293
7	0xbe94a48c	-0.2903179

output.2.weight f4 [4, 8]
0	0x3f0d219d	0.55129415
1	0xbe0d0cf1	-0.13774468
2	0xbf1178ac	-0.56824756
3	0x3f020556	0.5078939
4	0x3e5775ff	0.21041106
5	0x3edccf04	0.4312669
6	0x3e9bb2f1	0.3040996
7	0xbebbcce9	-0.36679772
8	0xbf20d17b	-0.6281964
9	0xbdc1d47c	-0.09464356
10	0x3f8cbad6	1.0994518
11	0xbe6d7688	-0.23189747
12	0xbf5649ff	-0.8370666
13	0x3e3425ee	0.17592594
14	0xbf40c31d	-0.7529772
15	0xbf278fb5	-0.65453655
16	0x3d671042	0.05641199
17	0x3cdb1eaa	0.02674802
18	0xbf26c866	-0.65149534
19	0x3de820b1	0.113343604
20	0x3ed24ca7	0.41074106
21	0x3ea8d3b5	0.3297402
22	0x3f02e14e	0.5112504
23	0xbe3f6e3a	-0.18694392
24	0xbedc0431	-0.42971948
25	0xbefa75fc	-0.4891814
26	0x3f521716	0.82066476
27	0xbf13472c	-0.57530475
28	0xbe93b18b	-0.28846392
29	0xbdeffba7	-0.11717921
30	0xbeb8a108	-0.36060357
31	0xbe37e49f	-0.17958306

output.2.bias f4 [4]
0	0x3ed5932f	0.41713855
1	0x3e683d51	0.2267964
2	0x3ed7f23a	0.42176992
3	0x3f173600	0.5906677

output.4.weight f4 [1, 4]
0	0xbf3aec89	-0.73017174
1	0x3f8b5298	1.0884581
2	0xbeee6b1a	-0.46566087
3	0x3f8dfbc6	1.109246

exp_avg f4 [16, 4]
0	0xbd61e51f	-0.055150148
1	0xbdc85ca3	-0.09783294
2	0xbd8e22be	-0.0694022
3	0x3b2e4a32	0.0026594517
4	0x3c3ad728	0.011403836
5	0x3ac6fef3	0.0015182182
6	0xbc4e39e0	-0.012587041
7	0xba9065b4	-0.0011016638
8	0xbd7e1e2b	-0.06204049
9	0x3c39f691	0.01135029
10	0xbca4a49f	-0.020098029
11	0xbadb31b7	-0.001672319
12	0x3e39c525	0.18141611
13	0xbd5e230d	-0.054232646
14	0x3dcec17b	0.10095497
15	0x3b13c436	0.002254737
16	0x3cc120f8	0.023575291
17	0xbcb7c56d	-0.022433007
18	0xbdc094e8	-0.094034016
19	0x3b8face8	0.0043846257
20	0xbe2fd0c7	-0.17169486
21	0x3cc7e379	0.02440046
22	0xbd1d068d	-0.038336325
23	0xbb4dc95b	-0.0031400535
24	0xbc204d27	-0.00978402
25	0xbd9c2683	-0.07624533
26	0xbcabbb59	-0.020963358
27	0xbc0c0df3	-0.008548248
28	0xbe660ffa	-0.22467032
29	0x3caaab91	0.020833762
30	0xbd417239	-0.04722807
31	0xbb924ead	-0.0044649453
32	0xbd229e75	-0.039701898
33	0x3cd83c5f	0.026395975
34	0x3de066d6	0.109571144
35	0x3b1a9d7f	0.002359241
36	0xbdf089f2	-0.11745061
37	0xbcec4165	-0.028839776
38	0xbcbd6478	-0.023119196
39	0x3ac4f562	0.0015026743
40	0xbe93e090	-0.28882265
41	0x3d89e51e	0.06733154
42	0xbdc1a444	-0.09455159
43	0xbb2f05a0	-0.0026706234
44	0x3e171b8f	0.14756607
45	0xbcbc8a75	-0.02301524
46	0x3e25c70b	0.1618921
47	0x3b16be64	0.0023001665
48	0xbb96008e	-0.004577703
49	0xbd66fb4c	-0.056392
50	0xbc4b074c	-0.012391876
51	0x3a86900f	0.0010266321
52	0xbd2c3b08	-0.042048484
53	0xbdd04079	-0.10168547
54	0xbdb71729	-0.08939964
55	0x3b96978a	0.0045957016
56	0x3e3b0c37	0.18266378
57	0xbd8ab916	-0.067735836
58	0x3db7f395	0.089820065
59	0x3aa9bb7a	0.0012949549
60	0x3d36762d	0.044546295
61	0x3c71ab65	0.014750336
62	0xb925ed0b	-0.00015823932
63	0x3b6c3d3e	0.0036047245

exp_avg_sq f4 [16, 4]
0	0x3d33c6ea	0.04389087
1	0x3d113c01	0.035457615
2	0x3c576abd	0.013148007
3	0x3990adad	0.0002759522
4	0x3c91a3ee	0.017778363
5	0x39f510b2	0.0004674248
6	0x3a5715d2	0.00082048506
7	0x35f5b0bc	1.8305359e-06
8	0x3c124dd6	0.00892969
9	0x3a945884	0.0011317884
10	0x3a569272	0.0008185274
11	0x371dd6e6	9.407964e-06
12	0x3d9c3ecf	0.07629167
13	0x3ae8339e	0.0017715578
14	0x3cabf511	0.02099088
15	0x379ce41b	1.8702869e-05
16	0x3f136193	0.5757076
17	0x3aeb285f	0.0017941109
18	0x3b62b632	0.003459346
19	0x378392ac	1.5684716e-05
20	0x3c3f72fc	0.011685129
21	0x3ace3018	0.0015730886
22	0x3aa9d599	0.0012957334
23	0x370bd76e	8.335204e-06
24	0x3f80504d	1.0024506
25	0x3c6df8fa	0.014524693
26	0x3c808da4	0.01569254
27	0x38e4f7c3	0.000109180364
28	0x3d99f881	0.075181015
29	0x3b17157b	0.0023053575
30	0x3b40b167	0.0029402615
31	0x37a08f96	1.9140349e-05
32	0x3dcdd988	0.100512564
33	0x3b42dc87	0.0029733495
34	0x3ce4fc81	0.027952434
35	0x37faded8	2.9906092e-05
36	0x3f18b057	0.59644073
37	0x3b8ed952	0.0043594027
38	0x3b30a437	0.0026953348
39	0x371086df	8.614471e-06
40	0x3e21a620	0.15786028
41	0x3c25db90	0.010123149
42	0x3c045611	0.00807716
43	0x37acf2d6	2.0617077e-05
44	0x3db1cf52	0.08682121
45	0x3a9ce86a	0.001197112
46	0x3ced8722	0.0289951
47	0x37c53c5c	2.3512337e-05
48	0x3c018f0b	0.007907639
49	0x3bffb774	0.0078038517
50	0x3b370a3a	0.002792968
51	0x3804719e	3.1577067e-05
52	0x3c20f3b8	0.009823732
53	0x3c595d09	0.01326681
54	0x3c69f5b2	0.01427977
55	0x385edad0	5.313271e-05
56	0x3e0ccb20	0.13749361
57	0x3be1f4d4	0.006895641
58	0x3c93821a	0.018006373
59	0x3803e656	3.144735e-05
60	0x3c4af967	0.012388564
61	0x3c80f81f	0.015743313
62	0x3c274e93	0.010211605
63	0x382bf5d0	4.0998508e-05

exp_avg f4 [16]
0	0xbb3f83f0	-0.0029222928
1	0xbb8b5a24	-0.004252689
2	0xbc2c4933	-0.010515499
3	0x3cb0ff17	0.021606011
4	0x3cbb63cd	0.022874737
5	0xbcc66f82	-0.024223093
6	0xbd0db802	-0.03459931
7	0xbcfd6e95	-0.030936519
8	0x3be6a671	0.0070388843
9	0x3b0f22de	0.002184085
10	0xbcca35fc	-0.024683945
11	0x3c938475	0.018007496
12	0xba8edcc1	-0.001089953
13	0x3ccb2584	0.024798162
14	0x3c6b41c6	0.014358943
15	0x3c61eb9a	0.013789082

exp_avg_sq f4 [16]
0	0x3c4ee1e0	0.012627095
1	0x387fb938	6.0969236e-05
2	0x39cf4dba	0.00039540028
3	0x3a8a3c4f	0.0010546538
4	0x3a13c8ad	0.0005637508
5	0x39cf46cc	0.00039534864
6	0x3b9bf3c0	0.004759282
7	0x3a2a98ed	0.0006507773
8	0x3adaffcf	0.0016708317
9	0x3a0e8c63	0.00054377894
10	0x3a6f7404	0.0009134414
11	0x3ab0136e	0.0013433525
12	0x3aa32410	0.001244666
13	0x3b0a261e	0.0021079849
14	0x3ab500c7	0.0013809436
15	0x3ae5998a	0.0017517072

exp_avg f4 [16, 16]
0	0xbc5b4bca	-0.013384769
1	0xbca1d07a	-0.01975273
2	0x3c5cb134	0.013469983
3	0x3e56b23f	0.20966433
4	0xbdb170c3	-0.08664086
5	0xbdbffe27	-0.093746476
6	0x3e5f677d	0.21816821
7	0xbdad3ef6	-0.084592745
8	0xbe124c59	-0.14286937
9	0xbe008dab	-0.12554042
10	0xbe33dc2b	-0.17564456
11	0x3d157e2d	0.036497284
12	0xbc8b6d07	-0.017019762
13	0xbc859c23	-0.016309803
14	0x3e088467	0.13331757
15	0xbc93041b	-0.017946294
16	0x3c77b947	0.015119857
17	0x3a816ed4	0.0009874948
18	0xbc87c996	-0.016575616
19	0xbcd614e0	-0.026133
20	0xba8b00bf	-0.0010605081
21	0xbb86619e	-0.0041009923
22	0x3cc8bec5	0.024505029
23	0x3d1d9dd1	0.038480584
24	0xbbabd274	-0.005243594
25	0x3ce556df	0.027995525
26	0x3d2c0e65	0.042005915
27	0x3d18485c	0.037178382
28	0x3bdd2177	0.006748374
29	0x3b3e12e6	0.0029002964
30	0xbd0cfa37	-0.03441831
31	0x3cb3b4c2	0.021936778
32	0x3889aa9e	6.564449e-05
33	0xbb4ba5f1	-0.003107425
34	0xbb4e1f6f	-0.0031451841
35	0xba55c5f6	-0.00081548037
36	0xbae67bdf	-0.0017584524
37	0xbb942bfe	-0.004521846
38	0x386c07bd	5.627399e-05
39	0xbb4e6373	-0.0031492382
40	0xbba3ce4b	-0.0049989573
41	0xbad1cb43	-0.0016006011
42	0xbb4bdfd6	-0.0031108758
43	0x38db55c7	0.00010458711
44	0xb8a28ec9	-7.751358e-05
45	0xba5f7ccc	-0.0008525371
46	0xb9e8f055	-0.0004442955
47	0x3a89f676	0.0010525722
48	0xbc50f464	-0.01275358
49	0xbca86af3	-0.02055881
50	0x3d1f46a0	0.038885713
51	0x3e556ebb	0.20843022
52	0xbd79422c	-0.060854122
53	0xbdbcebf4	-0.09224692
54	0x3e532bb3	0.20622139
55	0xbd9acb75	-0.075583376
56	0xbde7d110	-0.113191724
57	0xbdf07ffe	-0.117431626
58	0xbe430dba	-0.19048205
59	0x3d438e07	0.04774287
60	0xba21be1a	-0.000616999
61	0xbc60cca9	-0.01372067
62	0x3e049979	0.1294917
63	0x3bfa1e6f	0.0076330225
64	0xbdb01144	-0.08597043
65	0x3e490193	0.19629507
66	0x3e871cae	0.26389068
67	0x3ebe4293	0.37160167
68	0xbd398858	-0.045296043
69	0x3dcb3fcd	0.099242784
70	0x3ea15cb6	0.31516045
71	0x3e72abab	0.23698299
72	0x3d42e7b7	0.04758426
73	0xbd826245	-0.063664
74	0xbcb3e784	-0.021960981
75	0x3e86fabf	0.2636318
76	0xbd9c2a4d	-0.07625256
77	0xbd9a27b2	-0.075271025
78	0x3e62d277	0.22150598
79	0xbddb96b8	-0.10722107
80	0xb8058296	-3.183129e-05
81	0xb909fe0f	-0.00013159982
82	0xb9130737	-0.000140217
83	0xb923173c	-0.00015553547
84	0xb873ecd3	-5.8156274e-05
85	0xb93dd59a	-0.00018104017
86	0xb8f3a554	-0.00011617938
87	0xb8aab379	-8.139661e-05
88	0xb9425471	-0.00018532739
89	0xb8861eb8	-6.39534e-05
90	0xb8d1a6e4	-9.9969824e-05
91	0x37f3ea70	2.9077026e-05
92	0xb73fbf1b	-1.1428982e-05
93	0xb8936570	-7.0284004e-05
94	0xb8ce275e	-9.830178e-05
95	0x3768358a	1.3840743e-05
96	0x3ba004c7	0.004883382
97	0xbd42d10e	-0.04756265
98	0xbcf90150	-0.030396134
99	0x3d8fd1ab	0.07022413
100	0xbd2601cf	-0.04052907
101	0xbd98252c	-0.07428965
102	0x3dc803a3	0.09766319
103	0xbdcdc479	-0.1004724
104	0xbdb77267	-0.089573674
105	0xbd9dec30	-0.07711065
106	0xbe03f2b1	-0.12885548
107	0xbce65341	-0.02811587
108	0x3c43a87c	0.011942025
109	0x3c386ac8	0.011255927
110	0x3d29889f	0.041390058
111	0x3b7c5c68	0.0038507227
112	0x3ca18066	0.019714545
113	0xbd166c42	-0.036724336
114	0xbd81e71d	-0.063429095
115	0xbe1f6c7b	-0.15568726
116	0x3d222f25	0.03959574
117	0x3c6eebc9	0.014582583
118	0xbe2fae33	-0.17156295
119	0xbcdcb681	-0.026942493
120	0x3d302d1f	0.04301178
121	0x3d604ee9	0.054762755
122	0x3d7df605	0.0620022
123	0xbda31d0d	-0.07964525
124	0x3c9bce5f	0.019019304
125	0x3cb21260	0.021737278
126	0xbdb3350d	-0.08750353
127	0x3caa6cc8	0.020803824
128	0x3aec8799	0.0018045782
129	0x3cd388de	0.0258221
130	0x3d1f62e3	0.038912665
131	0xba95dd3a	-0.0011433729
132	0x3ce0322b	0.027367672
133	0x3d0e1b2e	0.03469389
134	0xbcb31b78	-0.021863684
135	0x3d27832d	0.040896583
136	0x3d580c46	0.05274608
137	0x3c9d1bb0	0.019178241
138	0x3cf1d309	0.029519575
139	0x3c8db295	0.017297069
140	0x3bade1fc	0.0053064805
141	0xbab384ea	-0.0013696228
142	0xba0cd995	-0.00053729984
143	0x3c61e2f1	0.013787017
144	0x37a4fa1d	1.9666792e-05
145	0x38b16559	8.458895e-05
146	0x38c201cf	9.250978e-05
147	0xb821adbf	-3.8547205e-05
148	0xb690f8fb	-4.3205196e-06
149	0x38f539ca	0.000116932744
150	0x38064304	3.2010503e-05
151	0x382718cb	3.9838993e-05
152	0x38cf70d1	9.891543e-05
153	0xb8855ffa	-6.359811e-05
154	0xb6f23894	-7.2187486e-06
155	0xb78e63d6	-1.6974209e-05
156	0xb705353c	-7.939812e-06
157	0xb7272a02	-9.963756e-06
158	0xb7f37823	-2.90238e-05
159	0xb7fd6186	-3.0205363e-05
160	0xbb87c324	-0.0041431356
161	0xbcf4ea54	-0.029896893
162	0xbc80ea38	-0.015736684
163	0x3df5f221	0.12009073
164	0xbd809b50	-0.062796235
165	0xbd99305d	-0.07479928
166	0x3e188522	0.14894536
167	0xbda03af3	-0.07823744
168	0xbddeb707	-0.108747534
169	0xbdbd18de	-0.09233259
170	0xbe0592e8	-0.13044322
171	0x3bbf1d19	0.005832326
172	0xbab73052	-0.0013976193
173	0x3b9f00dd	0.004852398
174	0x3d9020bf	0.07037496
175	0xbc9914f7	-0.018686755
176	0xb7df42e5	-2.6614822e-05
177	0xb8d01e18	-9.923818e-05
178	0x38096882	3.2760676e-05
179	0xb8bbff4a	-8.964406e-05
180	0xb86d5025	-5.6579844e-05
181	0xb9188e1b	-0.00014548788
182	0xb83d9f96	-4.5209737e-05
183	0xb9824e17	-0.00024853714
184	0xb90deadb	-0.00013534298
185	0xb982ef53	-0.00024973843
186	0xb9eb38f8	-0.00044865138
187	0xb8bbd4fb	-8.9565256e-05
188	0xb7203123	-9.548184e-06
189	0xb8ec97bd	-0.000112816204
190	0xb7fd4f21	-3.0196798e-05
191	0x37364cba	1.086591e-05
192	0x3b831474	0.004000241
193	0x3d3c13ca	0.04591731
194	0x3d9f0935	0.07765428
195	0x3dbf017f	0.09326457
196	0x3c2f1b76	0.0106877
197	0x3d0aa69d	0.0338503
198	0x3d6403d2	0.055667706
199	0x3d48b600	0.049001694
200	0x3d27cbda	0.040965892
201	0xbc471b6d	-0.012152535
202	0xbc54d717	-0.012990735
203	0x3d41e5f1	0.04733843
204	0x3c0401bf	0.008057057
205	0x3c270a88	0.010195382
206	0x3d6eaaa2	0.058268197
207	0xbb169347	-0.0022975968
208	0x3bf544e4	0.007485019
209	0x3b43ddfd	0.0029886954
210	0xbbb17862	-0.005415962
211	0xbc0a0344	-0.00842363
212	0xbb07f273	-0.0020743876
213	0xba961fa3	-0.001145352
214	0x3cab007c	0.020874254
215	0x3ca6b796	0.020351212
216	0xbb46de42	-0.0030344878
217	0x3bffad5e	0.0078026494
218	0x3c9b776b	0.018977841
219	0x3cabcf79	0.020972954
220	0x3b546643	0.0032409586
221	0x3a87dff2	0.0010366424
222	0xbc803085	-0.015648136
223	0x3c2c1a32	0.010504292
224	0xb774b18c	-1.4584872e-05
225	0xba9a6703	-0.0011779967
226	0xbabb8a38	-0.001430816
227	0xba5dd384	-0.0008461999
228	0xba927952	-0.0011175072
229	0xbaf9b9f1	-0.0019052607
230	0xb8756369	-5.8505135e-05
231	0xba749dfb	-0.0009331402
232	0xbb1ddc17	-0.0024087483
233	0xba86efee	-0.0010294893
234	0xba90552f	-0.0011011715
235	0x39e71e61	0.00044082387
236	0xb98ebeb7	-0.00027226444
237	0xba3e91a5	-0.00072696275
238	0xba1403a8	-0.0005646297
239	0x395ac226	0.00020862426
240	0x3b261407	0.0025341527
241	0xbcc75e9d	-0.024337107
242	0xbcfdf1b2	-0.030999038
243	0xbc50fbab	-0.012755315
244	0xbc4c6d7b	-0.012477274
245	0xbcb31f35	-0.021865467
246	0xbbe972e5	-0.007124292
247	0xbd2ebabc	-0.042658553
248	0xbcd45184	-0.025917776
249	0xbcd2eefb	-0.02574872
250	0xbcfefd24	-0.031126566
251	0xbcf8c32a	-0.030366499
252	0x3b4e4b17	0.0031477863
253	0x3bdb77df	0.0066976394
254	0xbbc72903	-0.006077887
255	0xbb2334a4	-0.0024903202

exp_avg_sq f4 [16, 16]
0	0x3b837e03	0.0040128245
1	0x3c8e8d70	0.017401427
2	0x3d15b954	0.036553696
3	0x3dc1583d	0.09440658
4	0x3b95cab6	0.004571284
5	0x3c9f1146	0.019417416
6	0x3d8115f5	0.06303016
7	0x3d2366c8	0.03989294
8	0x3cdb97bb	0.02680575
9	0x3c2b303d	0.010448513
10	0x3d16a037	0.036773887
11	0x3d1a8fbe	0.03773474
12	0x3b2ebb94	0.0026662098
13	0x3b9fd4e7	0.004877675
14	0x3d279390	0.04091221
15	0x3b16aa95	0.0022989858
16	0x3a46da8c	0.00075856666
17	0x3c4ea3b7	0.012612275
18	0x3cd266b0	0.02568373
19	0x3c86ee1d	0.016470963
20	0x3b1b5a9a	0.0023705126
21	0x3c443be0	0.011977166
22	0x3b949bc5	0.0045351707
23	0x3cb00185	0.0214851
24	0x3c94b1ef	0.018151252
25	0x3b1e7c1a	0.0024182857
26	0x3bbe65d5	0.005810479
27	0x3c55f2c2	0.013058366
28	0x3a209029	0.0006124997
29	0x3a325fcb	0.00068044354
30	0x3c26a523	0.010171208
31	0x3a7914ee	0.0009501715
32	0x37203354	9.548694e-06
33	0x38a6eb4e	7.959326e-05
34	0x383aa9b6	4.450391e-05
35	0x37252fb7	9.845876e-06
36	0x36cff093	6.1970873e-06
37	0x392a6e28	0.000162535
38	0x373e4ff9	1.1343503e-05
39	0x38aefcd5	8.34406e-05
40	0x391a7e2e	0.0001473359
41	0x36a61779	4.949918e-06
42	0x38c0a5d4	9.186161e-05
43	0x365f19f5	3.3244698e-06
44	0x35af9814	1.3082777e-06
45	0x37829aa8	1.5569225e-05
46	0x36df26fe	6.650457e-06
47	0x37580c92	1.287753e-05
48	0x3b2721c0	0.0025502294
49	0x3c813a56	0.015774887
50	0x3d2d241c	0.042270765
51	0x3db38bc1	0.0876689
52	0x3b3ab7aa	0.002849082
53	0x3c30132e	0.01074676
54	0x3d5a88b2	0.05335302
55	0x3d164537	0.036687102
56	0x3c84064a	0.01611628
57	0x3bbc5870	0.0057478473
58	0x3c85868d	0.01629951
59	0x3d27e37f	0.04098844
60	0x3ac5e808	0.0015099058
61	0x3b038b89	0.0020072183
62	0x3d18db81	0.03731871
63	0x3b0a665c	0.002111814
64	0x3bda209d	0.00665672
65	0x3cb46d62	0.022024814
66	0x3d475bab	0.048671406
67	0x3e0ba36f	0.13636564
68	0x3b699283	0.0035640306
69	0x3c254e67	0.010089493
70	0x3df9108f	0.121613614
71	0x3d1ce5ab	0.038304966
72	0x3c188897	0.009309909
73	0x3bdabc6e	0.0066752946
74	0x3c3e8dbd	0.011630473
75	0x3d23bff1	0.03997797
76	0x3b95fdc4	0.0045773704
77	0x3bb234e3	0.0054384335
78	0x3d6a324a	0.057176866
79	0x3c82167e	0.015879866
80	0x32fd6973	2.950103e-08
81	0x352ce509	6.4408283e-07
82	0x34a4d705	3.0703828e-07
83	0x33ea4174	1.090838e-07
84	0x329bb3a8	1.8126073e-08
85	0x35896275	1.023595e-06
86	0x34b7bb32	3.422261e-07
87	0x353fccfd	7.145134e-07
88	0x35419715	7.2117956e-07
89	0x3304a1df	3.0880866e-08
90	0x353e9de0	7.1010254e-07
91	0x3310a5c7	3.3678386e-08
92	0x32907324	1.6816166e-08
93	0x331844ab	3.545271e-08
94	0x3349e43c	4.7006537e-08
95	0x33d6e2bc	1.0006394e-07
96	0x3a662eb6	0.0008780764
97	0x3d06048f	0.03271919
98	0x3d886bb4	0.06661168
99	0x3d802e37	0.06258815
100	0x3c00240f	0.007821097
101	0x3cd2d7f5	0.025737742
102	0x3cc52f0c	0.024070285
103	0x3daa3d69	0.08312494
104	0x3d2669a6	0.040628098
105	0x3c437dd6	0.011931857
106	0x3cc9aee5	0.024619529
107	0x3d6afedf	0.05737197
108	0x3a2ba2bf	0.00065473834
109	0x3a3f398a	0.0007294646
110	0x3ce327c7	0.027728928
111	0x3a5ab9b7	0.00083437137
112	0x3ab62769	0.0013897243
113	0x3bcab773	0.0061864196
114	0x3c61f4f4	0.0137913115
115	0x3caf994d	0.021435404
116	0x3ad60cba	0.0016330697
117	0x3b937df6	0.0045010997
118	0x3c576ea2	0.0131489355
119	0x3c474470	0.012162313
120	0x3bfde846	0.0077486364
121	0x3b1ad61a	0.002362615
122	0x3b93d606	0.0045115976
123	0x3c27a25b	0.01023158
124	0x3a070e48	0.00051519694
125	0x3a3f01d1	0.00072863424
126	0x3c1f2437	0.009713224
127	0x3a9f06a8	0.0012132721
128	0x3a976e78	0.0011553308
129	0x3c7fdfb6	0.015617302
130	0x3d1c7d81	0.038205627
131	0x3d1d3cce	0.038388066
132	0x3b4dff63	0.003143274
133	0x3c1df6a3	0.009641322
134	0x3ba52a2c	0.0050404277
135	0x3d3bef2d	0.045882393
136	0x3c71f218	0.014767192
137	0x3b912df9	0.004430529
138	0x3c14a193	0.009071725
139	0x3d1d480f	0.0383988
140	0x396d557b	0.00022633925
141	0x3a83e43d	0.0010062527
142	0x3c9a0ba9	0.018804388
143	0x3a71cf11	0.0009224276
144	0x35c08591	1.4343988e-06
145	0x362ddb3d	2.5906622e-06
146	0x360597a8	1.990682e-06
147	0x35587367	8.0634203e-07
148	0x35760df4	9.1662446e-07
149	0x3708738b	8.133134e-06
150	0x353eafca	7.103632e-07
151	0x3601ef8e	1.9361937e-06
152	0x371dd777	9.408096e-06
153	0x34d5394e	3.9716036e-07
154	0x363bcf6a	2.7985902e-06
155	0x34f10f84	4.4901037e-07
156	0x352475f7	6.126642e-07
157	0x3659870b	3.2414125e-06
158	0x351014b5	5.3674313e-07
159	0x35372a3d	6.823428e-07
160	0x3b11a4f3	0.0022223562
161	0x3c1c2b29	0.009531775
162	0x3c723dba	0.014785225
163	0x3d425ef0	0.04745382
164	0x3b7c66a6	0.0038513332
165	0x3c685374	0.014180053
166	0x3d4d9632	0.050192066
167	0x3cb6ca65	0.022313306
168	0x3ca74af5	0.020421484
169	0x3c0380fe	0.00802636
170	0x3ccc9ec3	0.024978047
171	0x3c5f1882	0.013616683
172	0x3abe7c53	0.0014532901
173	0x3ae20509	0.0017243932
174	0x3c960245	0.01831163
175	0x3b847072	0.004041725
176	0x34c03b9d	3.580616e-07
177	0x364198fe	2.8848294e-06
178	0x35b10784	1.3189715e-06
179	0x34771f2f	2.3015012e-07
180	0x33d29382	9.8057185e-08
181	0x36b8baaf	5.50536e-06
182	0x3506d4d4	5.0228596e-07
183	0x36503cd2	3.1029817e-06
184	0x3691c10a	4.3438095e-06
185	0x33899171	6.406015e-08
186	0x365c2960	3.2806638e-06
187	0x33aca45f	8.039273e-08
188	0x33255686	3.849575e-08
189	0x350fc72b	5.356148e-07
190	0x3478e744	2.3180934e-07
191	0x351e9bd8	5.908637e-07
192	0x3a033f99	0.000500673
193	0x3d573857	0.052543964
194	0x3e0e5bd4	0.13902217
195	0x3e13a464	0.14418179
196	0x3c210244	0.0098272
197	0x3ccb81f9	0.02484225
198	0x3c390b1d	0.0112941535
199	0x3e13c838	0.14431846
200	0x3d3201cc	0.043458745
201	0x3c594a1c	0.013262298
202	0x3c63a9c5	0.013895457
203	0x3e0a1ad5	0.13486798
204	0x39362cf6	0.00017373622
205	0x3a8921d4	0.0010462352
206	0x3d90e623	0.07075145
207	0x3a044cb8	0.00050468324
208	0x393497db	0.00017222708
209	0x3bf00371	0.007324629
210	0x3c9d0904	0.019169338
211	0x3c825b26	0.015912604
212	0x3ac201d6	0.0014801573
213	0x3b9592fd	0.0045646415
214	0x3ac77de4	0.0015220013
215	0x3cafcfe2	0.021461431
216	0x3bdffd6d	0.0068356306
217	0x3b0b0a53	0.002121587
218	0x3b54cbde	0.0032470147
219	0x3c86c100	0.016449451
220	0x3914028f	0.00014115333
221	0x393cf8f2	0.00018021817
222	0x3c043364	0.008068893
223	0x39522370	0.00020040362
224	0x369f10f6	4.740544e-06
225	0x382fe00a	4.1931904e-05
226	0x37c265d4	2.317402e-05
227	0x3695dacc	4.4660173e-06
228	0x35e1222c	1.6773752e-06
229	0x38a19fac	7.7068195e-05
230	0x371bb00d	9.27971e-06
231	0x38240eb1	3.911433e-05
232	0x3881decb	6.192698e-05
233	0x35f6f5e9	1.8399998e-06
234	0x3822ae23	3.8785987e-05
235	0x358ccd49	1.0490559e-06
236	0x35054a52	4.965451e-07
237	0x36be5b83	5.6730946e-06
238	0x362d47b1	2.5820739e-06
239	0x36d08515	6.214376e-06
240	0x390f7f18	0.00013684889
241	0x3c27b2d6	0.010235509
242	0x3cc6f21b	0.024285367
243	0x3ca3a669	0.019976811
244	0x3adf783d	0.0017049384
245	0x3bfed1e5	0.007776486
246	0x3b73aedb	0.003718308
247	0x3cbaeb08	0.02281715
248	0x3c4073bb	0.011746342
249	0x3af5e877	0.0018761297
250	0x3b93cc9c	0.0045104753
251	0x3c84c117	0.016205354
252	0x38a9d305	8.0978534e-05
253	0x390fbb84	0.00013707398
254	0x3c3377af	0.010953828
255	0x38f2ce3b	0.00011577873

exp_avg f4 [16]
0	0x3c5aaba0	0.013346583
1	0xbbd14bbc	-0.006387202
2	0xbafdc50b	-0.0019361092
3	0xbc287056	-0.010280689
4	0x3d95e9c8	0.07319981
5	0xb8f5259b	-0.00011689515
6	0xbbe6ced8	-0.0070437007
7	0xbca50f02	-0.020148758
8	0xba60995d	-0.0008567775
9	0x38a44027	7.832079e-05
10	0x3bb6bb0c	0.005576497
11	0xb889faf1	-6.5794105e-05
12	0x3c1f20ca	0.009712407
13	0xba3150f0	-0.0006764075
14	0xba3d3de1	-0.00072189985
15	0xbaba9ce3	-0.001423743

exp_avg_sq f4 [16]
0	0x3b0ba260	0.00213065
1	0x3aff97e2	0.0019500221
2	0x38653012	5.4642624e-05
3	0x3adcebde	0.0016854962
4	0x3bed5cd0	0.00724373
5	0x35065548	5.004299e-07
6	0x3a2e61c1	0.000665214
7	0x3a0f3310	0.0005462626
8	0x3a0e9cf7	0.00054402597
9	0x35e03292	1.6704018e-06
10	0x3ad806cd	0.0016481519
11	0x361052e6	2.1505925e-06
12	0x3a4f2de7	0.00079032633
13	0x39cfadba	0.00039611553
14	0x3808c905	3.261214e-05
15	0x3917af05	0.00014465682

exp_avg f4 [16, 32]
0	0x3c5cfa80	0.013487458
1	0x3d86bf89	0.06579501
2	0x3c85a96c	0.016316138
3	0x3ba88668	0.0051429756
4	0x3c8fe32d	0.01756438
5	0x3e048197	0.1294006
6	0x3b736a4b	0.0037142213
7	0xbdec713b	-0.115450345
8	0x3ca81873	0.02051947
9	0xbe1baac7	-0.15201865
10	0xbd06dbec	-0.032924578
11	0xbd65ca84	-0.056101337
12	0xb9af9859	-0.0003349211
13	0xbe3be560	-0.18349218
14	0x3c567def	0.013091548
15	0xbd9fb557	-0.0779826
16	0x3cb3082e	0.021854486
17	0xbd364608	-0.04450038
18	0x3c012721	0.007882864
19	0xba715d27	-0.0009207301
20	0x3c68dfd6	0.014213523
21	0x3c3d1ce6	0.011542534
22	0xbb53a732	-0.00322957
23	0x3a16becf	0.00057504786
24	0xbba5543c	-0.005045442
25	0xbcf588ae	-0.0299724
26	0xbd3418a0	-0.043968797
27	0xbc915211	-0.017739328
28	0xb96b42b0	-0.0002243619
29	0xbc8eada1	-0.017416777
30	0xba1d19a2	-0.00059928943
31	0xbc76d1c3	-0.0150646595
32	0xbe18b0fe	-0.14911267
33	0x3f1085fd	0.5645445
34	0x3b6408bb	0.0034795243
35	0x3db8f296	0.090306446
36	0x3d77f0c2	0.06053234
37	0x3b099ad9	0.0020996837
38	0x3c7e4bc2	0.015520992
39	0xbe801eab	-0.25023398
40	0x3e0ecb47	0.13944732
41	0x3b7a93af	0.0038235
42	0xbe058c56	-0.13041815
43	0x3b8bba23	0.0042641326
44	0x3dccf17b	0.10006996
45	0x3e8173b2	0.2528358
46	0x3b8cf1f6	0.004301305
47	0xbeb375a0	-0.35050678
48	0x3ba57531	0.0050493707
49	0x3d8d21c0	0.06891203
50	0xb8729592	-5.7836594e-05
51	0xbb26682d	-0.0025391683
52	0x3a53f884	0.0008086043
53	0xb885eb30	-6.385741e-05
54	0x3bcd6e25	0.0062692338
55	0x3bb0fb34	0.0054010395
56	0xbba7f58b	-0.0051257065
57	0x3aace462	0.0013190622
58	0x3d983a05	0.07432941
59	0x391501ca	0.00014210414
60	0x3c7b859a	0.015351677
61	0x3d485851	0.04891235
62	0x3917d159	0.0001447847
63	0x3cbdc1df	0.023163734
64	0xbd113961	-0.03545511
65	0xbc71e4a9	-0.0147639895
66	0x3b2634c8	0.002536105
67	0x3adcf477	0.0016857524
68	0x3b216b68	0.002463067
69	0xba8b1efe	-0.0010614095
70	0xbd378059	-0.044800136
71	0xbd824938	-0.063616216
72	0xbca4eece	-0.020133402
73	0x3c78cd0e	0.015185608
74	0xbe063cee	-0.1310918
75	0x3c381f98	0.011238001
76	0xbd1f6057	-0.038910236
77	0xbced7272	-0.028985236
78	0x3b33d897	0.002744233
79	0xbd96b9bb	-0.07359644
80	0xbcd3157e	-0.025767084
81	0xbc49edaf	-0.012324735
82	0x3a07adb7	0.0005175727
83	0xbb8524a6	-0.0040632067
84	0xba24f9b5	-0.0006293313
85	0xbae0cfee	-0.0017151812
86	0xbd2f68ff	-0.04282474
87	0xbd30dbc9	-0.043178353
88	0xbcfbe622	-0.030749384
89	0x3af4c68e	0.0018674897
90	0xbde9882b	-0.11402925
91	0x3a044254	0.0005045284
92	0xbd0b6818	-0.03403482
93	0xbd18f2fe	-0.03734111
94	0x390b5c6e	0.00013290506
95	0xbd2bedbe	-0.041974775
96	0xbb5ce9ad	-0.0033708618
97	0x3cf7e622	0.030261103
98	0xbb976acb	-0.004620885
99	0xbc0262f8	-0.007958166
100	0xbb8f7d24	-0.0043789316
101	0x3d206a4d	0.039163876
102	0xbc0a0416	-0.008423826
103	0xbc96bd81	-0.01840091
104	0x3d0d0f2b	0.034438293
105	0xbcb1da2a	-0.021710474
106	0xbc0f1c87	-0.008734829
107	0xba503959	-0.0007943116
108	0xbc151a2d	-0.009100479
109	0xbc1ec3e5	-0.00969026
110	0xbbcb6786	-0.0062074093
111	0xbcc2554a	-0.02372231
112	0xba364620	-0.00069531985
113	0xbb52704c	-0.0032110391
114	0x38d3720f	0.00010082509
115	0xba047d67	-0.0005054087
116	0xba85e9e9	-0.0010216805
117	0xbb825882	-0.003977836
118	0xbab2f7ca	-0.0013654169
119	0x3ad7a28c	0.0016451641
120	0xbba6fb10	-0.005095847
121	0xba42ecc5	-0.0007435794
122	0xbb751020	-0.0037393644
123	0x3baca697	0.0052688825
124	0xba6734ed	-0.0008819837
125	0xbba9b7e1	-0.005179391
126	0xba0c9275	-0.00053624
127	0x3b2611b2	0.0025340137
128	0xbb81b8d2	-0.0039588
129	0x3b8ec364	0.0043567885
130	0x3bb06e6f	0.0053842585
131	0x3bccdfeb	0.006252279
132	0x3b99a9ef	0.004689447
133	0x3b571ae4	0.0032822425
134	0x3afcd3ba	0.0019289174
135	0xbc9a5c33	-0.018842792
136	0x3b9097c9	0.0044126255
137	0x3beab915	0.007163177
138	0xbb9c301b	-0.004766477
139	0x3bc75314	0.0060829017
140	0xb9e51175	-0.0004369129
141	0x3bc44e0a	0.0059907483
142	0x3bbb89a6	0.005723196
143	0xbcbc7b49	-0.023008006
144	0x3a7bfeff	0.00096128875
145	0x3b69c957	0.0035672986
146	0x3a2da0f0	0.0006623408
147	0xba232656	-0.0006223669
148	0xb9582a47	-0.00020615115
149	0xbac7949d	-0.0015226785
150	0xbb23e3ee	-0.0025007683
151	0x3a86d92c	0.0010288111
152	0xbbbdc658	-0.0057914667
153	0xb8694bab	-5.5622e-05
154	0x39041f1b	0.00012600089
155	0xb9af7140	-0.0003346298
156	0x38a436fe	7.8303725e-05
157	0x3a7b2c55	0.0009581496
158	0x394a5217	0.00019294802
159	0x3bae0c5e	0.005311533
160	0xbd34e771	-0.044166032
161	0x3cc1c553	0.023653662
162	0x3ab56acd	0.0013841033
163	0x3a8a79b0	0.001056483
164	0x3be7a486	0.0070691733
165	0xbab3f3c2	-0.0013729262
166	0xbd2a536a	-0.041583456
167	0xbd95968a	-0.07304104
168	0xbcbadae8	-0.02280946
169	0x3c007c3b	0.007842119
170	0xbdf4d4e6	-0.1195467
171	0x3b5c7e4b	0.0033644612
172	0xbcf0be5e	-0.02938765
173	0xbcae3dfe	-0.021269795
174	0x3b320242	0.002716199
175	0xbd9c3e2d	-0.076290466
176	0x3ce55513	0.027994668
177	0x3ca63251	0.020287665
178	0xba7a3566	-0.00095447
179	0x3b726844	0.0036988417
180	0xbaa75d4c	-0.0012768894
181	0xbb75fbd4	-0.0037534134
182	0x3d4269b4	0.047464088
183	0x3d6b4fee	0.057449274
184	0x3cfd0a3f	0.030888675
185	0x3affc4b8	0.0019513583
186	0x3e0278a3	0.12741332
187	0x3a961d69	0.0011452857
188	0x3d187c22	0.037227757
189	0x3d54e70b	0.051978152
190	0xb88648c0	-6.403169e-05
191	0x3d5a1845	0.0532458
192	0x3c893d4e	0.016752865
193	0x3c98b208	0.01863958
194	0x3c363736	0.011121562
195	0x3b71f6a7	0.0036920698
196	0x3c459a4f	0.012060716
197	0x3d3f71e0	0.04673946
198	0x3b80e647	0.003933701
199	0xbd31eeaf	-0.043440517
200	0x3b6a0ca4	0.00357131
201	0xbd766de9	-0.060163412
202	0xbc94353e	-0.018091794
203	0xbcd04f7b	-0.025428524
204	0x3b0c0a33	0.0021368384
205	0xbd958e3e	-0.07302521
206	0x3c01bc87	0.007918484
207	0xbce1e9c9	-0.027577298
208	0x3987e73c	0.0002592149
209	0xbc81607a	-0.015793074
210	0xbaa42c5e	-0.001252543
211	0xba8d1821	-0.0010764637
212	0xbaeae846	-0.0017922006
213	0x3bdb2e93	0.0066889017
214	0xbaa63cf1	-0.0012682957
215	0xbaa6c02a	-0.0012722064
216	0x3ba38291	0.00498993
217	0xbc1aed39	-0.009455972
218	0xbcb2d72e	-0.021831121
219	0x3b9e15f0	0.0048243925
220	0xba840e78	-0.0010075113
221	0x3bee24ea	0.007267584
222	0xbb33ac5d	-0.002741597
223	0xbbbe48a7	-0.0058070007
224	0xbd1d1c83	-0.03835727
225	0x3e64b87f	0.22336005
226	0x3bc30b16	0.0059522493
227	0x3d40c216	0.047060095
228	0x3d2237ec	0.039604113
229	0xbd7ee63b	-0.062231284
230	0x3d89e6d4	0.0673348
231	0xbdf03b0f	-0.117300145
232	0xbd793d61	-0.06084955
233	0xbc75aa0e	-0.0149941575
234	0x3d8f2bcd	0.06990776
235	0x3c6f6e2d	0.01461367
236	0x3dbfe656	0.09370105
237	0x3e2650ca	0.16241756
238	0x3c127f0e	0.008941425
239	0xbdee6ad6	-0.11641471
240	0xbcbe3883	-0.023220306
241	0x3cd202f4	0.025636174
242	0x3b6a43f3	0.0035746067
243	0xba5deac2	-0.00084654626
244	0xbb62f2aa	-0.0034629502
245	0xbd75cc00	-0.060009003
246	0xbd1134c8	-0.035450727
247	0xbc49be77	-0.012313477
248	0xbd6abf3f	-0.057311293
249	0xbc43a6c8	-0.011941619
250	0xbe1145cb	-0.1418678
251	0xbb886a97	-0.004163097
252	0xbcd0ce12	-0.025488887
253	0xbda137c1	-0.07871962
254	0x38d9538e	0.000103629296
255	0xbd2cd7a8	-0.042197853
