data/GNN/single_l5_bPfcand_S1_SUEPtracks.pt (torch, 24627 bytes, 33 tensors)

pf_encode.0.weight f4 [16, 4]
-0.3082349 0.46237573 -0.19107045 0.2832657 -0.49832103 -0.41415924 0.3636498 0.84004796
-0.002498733 0.6401753 0.17311984 -0.489143 0.2243631 0.46167332 -0.007694189 -0.4960114
0.13352193 0.20896375 0.052099425 -0.3614702 -0.4150075 -0.33622482 0.054385766 0.03636368
-0.034230087 0.0029567762 -0.5130369 -0.37173027 0.39773068 0.13759851 -0.27035943 0.22059627
0.23568703 0.73270005 0.30824643 0.35012096 0.00027916546 0.56590426 0.012085486 0.47385657
0.3527039 -0.77075106 0.48972058 0.425367 0.37862337 0.10881829 0.1439846 0.17719339
0.3912802 -0.6116315 -0.05118993 -0.16176106 -0.29111397 0.5379775 0.17727004 0.3712514
-0.0653201 0.65779173 0.5391764 -0.24525417 0.06821001 -0.5313923 0.21240893 0.17938378
00000000: f7d0 9dbe 83bc ec3e f9a7 43be 3408 913e
00000010: ef23 ffbe ae0c d4be 4e30 ba3e 620d 573f
00000020: c9c1 23bb 87e2 233f 5446 313e f470 fabe
00000030: 71bf 653e 7260 ec3e 891f fcbb 35f5 fdbe
00000040: f9b9 083e 98fa 553e 3566 553d 9f12 b9be
00000050: dd7b d4be a925 acbe 9cc3 5e3d 15f2 143d
00000060: d934 0cbd 79c6 413b 6356 03bf 6e53 bebe
00000070: 5ba3 cb3e a0e6 0c3e 8d6c 8abe fde3 613e
00000080: f157 713e 3b92 3b3f 7ad2 9d3e 0e43 b33e
00000090: f45c 9239 1adf 103f 3402 463c 549d f23e
000000a0: 9b95 b43e f14f 45bf a8bc fa3e b4c9 d93e
000000b0: ecda c13e 20dc de3d b370 133e 2f72 353e
000000c0: e155 c83e e293 1cbf 88ac 51bd b1a4 25be
000000d0: e40c 95be e5b8 093f 4786 353e aa14 be3e
000000e0: 8bc6 85bd 0a65 283f 7707 0a3f e923 7bbe
000000f0: b1b1 8b3d 5309 08bf ba81 593e 62b0 373e

pf_encode.0.bias f4 [16]
-0.05486462 0.32738367 -0.33480415 -0.4610293 -0.5041823 -0.23201273 -0.41032457 -0.46984553
0.20830534 0.15952745 0.40932593 -0.26588008 0.49992293 1.063034 0.18119955 0.10407962
00000000: b9b9 60bd d59e a73e 736b abbe 080c ecbe
00000010: 1712 01bf bf94 6dbe 1016 d2be 988f f0be
00000020: ff4d 553e 2a5b 233e 2b93 d13e 6f21 88be
00000030: e6f5 ff3e 8011 883f 608c 393e b227 d53d

pf_encode.2.weight f4 [16, 16]
0.3733799 0.1134907 -0.30663773 -0.24059911 0.19389728 0.13457385 0.19905163 0.18639529
0.09023947 -0.09201427 -0.082365625 0.15268268 0.23437433 0.035828214 -0.23921387 -0.14746241
-0.25761983 0.2782878 -0.34131438 -0.09315679 -0.24868119 -0.16681886 -0.20979574 -0.03940062
0.087548 -0.40549165 0.28302738 -0.17050429 0.3711269 -0.013456475 0.10947336 0.4390868
0.26867586 -0.09033727 0.20808826 -0.01821301 0.16846414 -0.30413327 -0.032798115 0.1293159
0.34468934 0.45323068 -0.18837477 0.22989883 -0.24128805 -0.10969137 -0.072047964 -0.40360433
-0.045188148 0.23551866 -0.62304604 -0.39942858 -0.52604336 0.067131326 0.05163332 -0.17255111
-0.20807809 0.031322382 -0.037598945 -0.029804213 0.21162622 0.17131186 -0.15812682 0.29611373
0.16139692 -0.24075346 0.22428142 0.05720381 0.09830688 -0.23861308 -0.21869303 -0.07151827
0.12418693 -0.04984094 -0.32584763 -0.2378607 -0.121286355 0.11221094 -0.045681246 -0.29798377
0.5082095 0.11809228 -0.26255405 -0.51034415 -0.65117 -0.071157135 -0.0013404768 -0.39846852
-0.2583558 0.42614275 -0.006022718 -0.4776127 -0.008941652 0.6955889 0.039363515 -0.12116888
-0.73985225 0.20353085 -0.60036844 -0.55289793 -0.64727414 -0.11182378 -0.14050263 -0.34742394
-0.21529293 -0.54681194 0.554086 -0.19024499 0.2547168 0.24306251 -0.09160434 0.42141977
0.38984329 0.39840466 0.16821961 0.034279443 -0.23982891 -0.16822122 -0.11052032 -0.3910128
0.121491 0.55891204 -0.20478338 -0.21900803 -0.004384204 0.27668318 0.3005684 -0.43841892
0.2751315 0.5009386 -0.20360711 -0.19793253 -0.24331188 -0.01215155 0.18918298 0.16316041
-0.10128492 0.09778446 -0.27334815 -0.07735303 0.078009754 0.39219323 0.13320005 0.18571883
0.02484132 -0.13349459 0.47947225 0.4520535 0.1521279 -0.24091439 0.17103836 0.08092344
0.18533781 0.12601684 -0.34747633 0.15808798 -0.36776152 0.16495073 -0.100168094 -0.22969167
-0.035705615 -0.2698804 -0.37213868 0.007477768 0.14451356 -0.20233731 0.12917693 0.21529083
-0.19644476 0.010065726 0.24760112 0.21735582 0.15562314 -0.4594847 -0.3192395 -0.095559046
-0.0060180174 0.16199373 0.47764307 0.19135594 -0.14219041 -0.31469604 0.05652133 -0.08467881
0.64502734 0.5915584 0.044706263 -0.016303191 -0.34859204 0.78194594 0.52287894 -0.3555434
-0.19853051 0.09683294 -0.05160067 -0.07430942 0.36639553 -0.14091204 -0.5719047 0.17745131
0.22657384 -0.15188214 0.22552153 -0.025063958 0.1915944 0.13400938 0.4538368 0.3953385
0.12207817 -0.41734374 0.095544726 0.19891472 -0.10949781 -0.024942577 0.3253952 -0.043286834
-0.0166802 0.17735702 -0.40747094 0.32034454 -0.15131475 -0.26954657 -0.12499008 -0.17587821
0.05961182 0.2761946 -0.012985389 0.052463442 -0.23999475 0.21813458 -0.017042376 0.2091634
0.035590637 -0.32047006 0.033467073 0.13497348 0.22573535 0.007676435 -0.3387781 0.049498502
0.017208958 0.19551663 -0.18916185 -0.33599275 -0.31849596 0.36560348 0.15069784 -0.18734698
-0.18289082 0.034280103 0.35143092 0.21981043 0.1466754 0.044348806 0.016954709 0.3688016
00000000: a62b bf3e d06d e83d 9fff 9cbe 9d5f 76be
00000010: 028d 463e bacd 093e 31d4 4b3e 68de 3e3e
00000020: 79cf b83d fa71 bcbd 4faf a8bd d958 1c3e
00000030: d3ff 6f3e 9bc0 123d 7bf4 74be 6300 17be
00000040: bfe6 83be bd7b 8e3e c2c0 aebe fdc8 bebd
00000050: 48a6 7ebe 90d2 2abe b2d4 56be 8b62 21bd
00000060: 5e4c b33d 9a9c cfbe f7e8 903e ad98 2ebe
00000070: 5804 be3e 8c78 5cbc 9233 e03d fccf e03e
00000080: e28f 893e bf02 b9bd 1715 553e 7333 95bc
00000090: dd81 2c3e 5bb7 9bbe 5157 06bd 636b 043e
000000a0: 1f7b b03e da0d e83e 51e5 40be 996a 6b3e
000000b0: 3714 77be dea5 e0bd e28d 93bd 3aa5 cebe
000000c0: 3517 39bd ce2b 713e f27f 1fbf e781 ccbe
000000d0: c7aa 06bf 267c 893d 767d 533d 3db1 30be
000000e0: 6c12 55be e64b 003d 5a01 1abd f727 f4bc
000000f0: 8bb4 583e 606c 2f3e ffeb 21be 389c 973e
00000100: 3c45 253e 1388 76be 07aa 653e 8b4e 6a3d
00000110: 1e55 c93d fd56 74be 11f1 5fbe 2c78 92bd
00000120: b855 fe3d 0326 4cbd 80d5 a6be c191 73be
00000130: fb64 f8bd d9ce e53d 421c 3bbd 5491 98be
00000140: 051a 023f 5eda f13d 7c6d 86be eaa5 02bf
00000150: 14b3 26bf d5ba 91bd f0b2 afba 1104 ccbe
00000160: 3647 84be 622f da3e 385a c5bb a789 f4be
00000170: 0280 12bc 1d12 323f a33b 213d 6427 f8bd
00000180: f566 3dbf 646a 503e bfb1 19bf b88a 0dbf
00000190: c2b3 25bf de03 e5bd ecdf 0fbe 8de1 b1be
000001a0: c075 5cbe defb 0bbf 95d8 0d3f 95cf 42be
000001b0: 3e6a 823e 61e5 783e 0e9b bbbd 55c4 d73e
000001c0: 8a99 c73e b2fb cb3e c341 2c3e 9a68 0c3d
000001d0: b695 75be 2f42 2cbe 7a58 e2bd d432 c8be
000001e0: 46d0 f83d dc14 0f3f bcb2 51be a443 60be
000001f0: 5ea9 8fbb 6ba9 8d3e 1ae4 993e 7278 e0be
00000200: 09de 8c3e 833d 003f 627e 50be d3ae 4abe
00000210: c026 79be 4b17 47bc 2fb9 413e 8613 273e
00000220: 786e cfbd 3843 c83d 4af4 8bbe 446b 9ebd
00000230: 94c3 9f3d 8dcd c83e 9865 083e 142d 3e3e
00000240: 0680 cb3c ceb2 08be 637d f53e 8e73 e73e
00000250: 6bc7 1b3e 43b2 76be ae24 2f3e 30bb a53d
00000260: 32c9 3d3e 8f0a 013e 6be8 b1be d1e1 213e
00000270: 3d4b bcbe d8e8 283e ee24 cdbd 4b34 6bbe
00000280: 0d40 12bd c42d 8abe f688 bebe 1108 f53b
00000290: 5dfb 133e 8331 4fbe f546 043e 3375 5c3e
000002a0: d128 49be b7ea 243c 268b 7d3e 8692 5e3e
000002b0: ac5b 1f3e 9441 ebbe 5c73 a3be 76b4 c3bd
000002c0: ca32 c5bb afe1 253e a28d f43e d0f2 433e
000002d0: 5d9a 11be d71f a1be e982 673d 156c adbd
000002e0: 8320 253f 5f70 173f ea1d 373d 458e 85bc
000002f0: a87a b2be 9c2d 483f 65db 053f c909 b6be
00000300: 954b 4bbe 5950 c63d 395b 53bd 8a2f 98bd
00000310: 3298 bb3e 3f4b 10be 5968 12bf ccb5 353e
00000320: f902 683e fe86 1bbe 1eef 663e ee52 cdbc
00000330: 5331 443e c139 093e 4c5d e83e cf69 ca3e
00000340: 1f04 fa3d 14ae d5be f4ac c33d 4db0 4b3e
00000350: 6340 e0bd 6054 ccbc 339a a63e 894d 31bd
00000360: eaa4 88bc 149d 353e 08a0 d0be 3304 a43e
00000370: 41f2 1abe 0202 8abe cdfa ffbd 6b19 34be
00000380: 862b 743d 6169 8d3e abc0 54bc e8e3 563d
00000390: 2fc1 75be ac5e 5f3e 749c 8bbc ee2e 563e
000003a0: 7dc7 113d a714 a4be c514 093d 7d36 0a3e
000003b0: 2b27 673e 9b8a fb3b 5374 adbe f1be 4a3d
000003c0: cdf9 8c3c 8335 483e a5b3 41be 3e07 acbe
000003d0: e711 a3be 6130 bb3e 8950 1a3e e3d7 3fbe
000003e0: bb47 3bbe 4b69 0c3d c1ee b33e fc15 613e
000003f0: 1332 163e 18a7 353d 9ae4 8a3c 90d3 bc3e

pf_encode.2.bias f4 [16]
0.30521372 0.19879231 -0.25025004 0.6097635 0.094750285 0.42279685 0.67817086 0.38091314
0.2857055 -0.030465925 0.16028257 0.3373605 0.010719177 0.10391093 0.1147006 0.4146591
00000000: f944 9c3e 3690 4b3e c620 80be 7619 1c3f
00000010: 700c c23d d478 d83e 9b9c 2d3f 0c07 c33e
00000020: fe47 923e ad93 f9bc 1d21 243e 84ba ac3e
00000030: 7d9f 2f3c 41cf d43d 26e8 ea3d 334e d43e

conv.nn.0.weight f4 [16, 32]
0.00749283 0.00017542976 -0.09067565 0.040350087 -0.071799606 -0.14710318 -0.19608769 -0.17339922
-0.055024814 0.077908605 0.1282306 -0.07718171 0.10983157 -0.029427605 0.00234778 -0.10658417
0.124640375 0.1015177 0.0056030494 -0.040585686 -0.18812054 -0.21087171 0.012350283 -0.38225457
0.11717772 -0.021778027 0.20677173 0.06692193 -0.12569232 0.005646348 0.03735853 -0.15706879
0.13616365 0.013210011 -0.3409244 0.43094978 -0.17844318 0.2324158 0.26688275 -0.10296596
0.08598749 0.03385476 0.15022786 -0.053373396 -0.034730725 -0.08901876 0.029742178 0.11773005
0.007451092 0.15715672 -0.091606766 0.0033503503 -0.07816822 -0.053691532 0.07922703 -0.073669694
0.25514317 0.046702042 0.013684316 -0.07197876 0.05932673 0.20241413 -0.008314311 -0.13651322
0.08268757 -0.18878229 0.21899198 -0.03399642 -0.116516024 -0.38566977 -0.0796095 -0.069104806
0.055525944 0.41814005 0.20211646 -0.044035047 -0.18582039 -0.17961253 -0.18942077 -0.06391137
0.05442057 0.05138632 -0.5038768 0.19872768 -0.29901335 0.06072771 0.42279363 -0.006806889
0.2026823 -0.47290957 0.13950965 -0.19557916 0.038879216 -0.053975448 0.23071374 0.21889473
-0.00868092 -0.009810148 -0.008429032 0.015564273 -0.063188665 -0.09308237 0.027576841 0.17237227
0.08085157 0.26851934 -0.03320962 0.29757085 0.12522286 -0.14838153 -0.051596776 -0.12545542
0.19288832 0.19802323 -0.09684296 -0.020323077 0.0014617644 -0.24447437 0.29411677 -0.1074705
0.008672212 0.31105372 -0.14685969 0.15739594 -0.3494224 -0.17831914 -0.15084763 -0.23909624
-0.0039497702 -0.08678669 0.2571687 -0.17274171 0.16335654 0.014580878 -0.1429288 0.009702858
-0.1300143 0.39805993 -0.03457963 -0.1616551 -0.088345565 -0.00984294 -0.10038351 0.13991857
0.040948004 0.21080616 -0.52130216 0.32872137 -0.3354864 0.085949644 0.6354596 -0.23526978
-0.101149134 -0.402944 0.05415436 -0.14598225 0.3427646 -0.1925841 0.09875873 0.53959423
0.03636511 0.0414669 0.35782188 0.21996793 0.06654035 0.11568594 0.25707018 0.35513255
0.14831337 0.75130296 -0.07532044 0.6017759 -0.04230201 -0.30484548 -0.26483232 0.023003532
-0.1958766 -0.23512952 0.18979366 0.055401705 -0.22728272 -0.07203166 -0.028582472 -0.08037679
0.08299606 0.45833847 0.12529829 0.21428426 0.09610545 0.14106706 0.040299438 0.15160096
-0.16763197 0.5041888 -0.41241166 0.17240405 -0.087261975 0.59629315 0.26337412 -0.038650107
-0.13152838 -1.0470997 -0.07228178 -0.4234377 0.36413902 -0.069584824 0.29297927 0.54460466
-0.010260006 0.17548352 0.05259959 0.29707742 0.0779903 0.048772376 0.18903404 0.042577896
0.20775135 -0.013269034 0.111646675 -0.01840311 0.035265006 0.008590872 0.17020676 0.30696607
0.10390795 -0.20659524 0.1993406 -0.0016896758 0.10900161 -0.08767772 0.15018255 -0.032977678
-0.20167153 0.36921713 0.055212397 0.09972671 -0.16211058 -0.09688865 -0.2175384 -0.12432108
0.12493711 0.57180053 -0.63698035 0.22235492 -0.4053676 -0.07941797 1.0481772 -0.520773
-0.19615309 -0.21245396 0.0513081 -0.5176197 0.053641085 -0.37635633 0.092985444 0.14216414
00000000: 6a86 f53b 91f3 3739 28b4 b9bd 2246 253d
00000010: ac0b 93bd 37a2 16be 36cb 48be 918f 31be
00000020: b361 61bd 8c8e 9f3d e24e 033e 7211 9ebd
00000030: 60ef e03d 2912 f1bc 36dd 193b cd48 dabd
00000040: 7443 ff3d 83e8 cf3d c999 b73b 2d3d 26bd
00000050: aca2 40be c1ee 57be d758 4a3c dfb6 c3be
00000060: dffa ef3d d567 b2bc f8bb 533e 5d0e 893d
00000070: 7db5 00be 0005 b93b 4205 193d a4d6 20be
00000080: 7c6e 0b3e cd6e 583c a58d aebe 73a5 dc3e
00000090: cfb9 36be 68fe 6d3e dba4 883e d1df d2bd
000000a0: 361a b03d 4aab 0a3d 55d5 193e 109e 5abd
000000b0: ce41 0ebd 784f b6bd dea5 f33c 741c f13d
000000c0: 4a28 f43b b1ed 203e 549c bbbd 8d91 5b3b
000000d0: a916 a0bd a7eb 5bbd c841 a23d 23e0 96bd
000000e0: 20a2 823e a44a 3f3d 2e34 603c 9a69 93bd
000000f0: 9600 733d a645 4f3e bf38 08bc 1fca 0bbe
00000100: 1a58 a93d 2550 41be 6f3f 603e d53f 0bbd
00000110: f49f eebd 8276 c5be 4e0a a3bd d286 8dbd
00000120: 2c6f 633d 7416 d63e 9ef7 4e3e 185e 34bd
00000130: b347 3ebe 59ec 37be 85f7 41be f7e3 82bd
00000140: 1be8 5e3d 767a 523d 12fe 00bf 457f 4b3e
00000150: 4718 99be 9fbd 783d 6878 d83e 530c dfbb
00000160: f38b 4f3e 3421 f2be 9edb 0e3e e745 48be
00000170: d03f 1f3d 5c15 5dbd 3940 6c3e f125 603e
00000180: 6b3a 0ebc beba 20bc ec19 0abc 4b01 7f3c
00000190: 0f69 81bd f8a1 bebd d4e8 e13c 5b82 303e
000001a0: 8295 a53d 5e7b 893e cf06 08bd 355b 983e
000001b0: 6c3a 003e 54f1 17be 2457 53bd 6377 00be
000001c0: 8484 453e 9ac6 4a3e 9a55 c6bd 957c a6bc
000001d0: ad98 bf3a 7d57 7abe 7996 963e 7e19 dcbd
000001e0: e515 0e3c 6f42 9f3e 6362 16be 672c 213e
000001f0: 7ee7 b2be 4b99 36be cd77 1abe a5d5 74be
00000200: 136d 81bb 38bd b1bd 9eab 833e 34e3 30be
00000210: f046 273e a3e4 6e3c ed5b 12be bcf8 1e3c
00000220: 7822 05be 83ce cb3e 5fa3 0dbd ea88 25be
00000230: 85ee b4bd 4844 21bc df95 cdbd d046 0f3e
00000240: 18b9 273d 92dd 573e 0f74 05bf 2b4e a83e
00000250: e0c4 abbe 5e06 b03d 7bad 223f 90ea 70be
00000260: 4727 cfbd ad4e cebe f6d0 5d3d 5f7c 15be
00000270: d77e af3e c434 45be 0442 ca3d d922 0a3f
00000280: 95f3 143d 32d9 293d 6e34 b73e 463f 613e
00000290: 4f46 883d c0ec ec3d b49e 833e efd3 b53e
000002a0: 76df 173e 6455 403f 9a41 9abd fc0d 1a3f
000002b0: df44 2dbd b514 9cbe 1a98 87be e771 bc3c
000002c0: e093 48be cbc5 70be 4559 423e e6ec 623d
000002d0: cdbc 68be 5685 93bd ca25 eabc 969c a4bd
000002e0: d7f9 a93d 57ab ea3e 324e 003e 556d 5b3e
000002f0: efd2 c43d e273 103e 0611 253d 483d 1b3e
00000300: b7a7 2bbe 8412 013f 9f27 d3be b08a 303e
00000310: 68b6 b2bd aba6 183f f9d8 863e 934f 1ebd
00000320: 60af 06be 5d07 86bf 7808 94bd d4cc d8be
00000330: 6e70 ba3e 7d82 8ebd 6101 963e 366b 0b3f
00000340: 9619 28bc f4b1 333e ab72 573d 881a 983e
00000350: 61b9 9f3d 8bc5 473d 2492 413e 2966 2e3d
00000360: c5bc 543e 5d66 59bc 03a7 e43d 1ec2 96bc
00000370: 0a72 103d bbc0 0c3c ae4a 2e3e a82a 9d3e
00000380: b1cd d43d b48d 53be f11f 4c3e 1d78 ddba
00000390: 3c3c df3d 6090 b3bd 74c9 193e 9a13 07bd
000003a0: fb82 4ebe 070a bd3e 6526 623d 843d cc3d
000003b0: 5100 26be 8e6d c6bd 63c2 5ebe 0d9c febd
000003c0: 07df ff3d 8561 123f 2511 23bf 02b1 633e
000003d0: 588c cfbe e3a5 a2bd ac2a 863f 6151 05bf
000003e0: 5bdc 48be 888d 59be 7128 523d ba82 04bf
000003f0: c1b6 5b3d c7b1 c0be 276f be3d 7a93 113e

conv.nn.0.bias f4 [16]
-0.16034277 0.117162 -0.17505611 -0.14177243 0.12960964 0.09904252 0.52677196 -0.19868597
-0.10555024 -0.27442732 -0.2830935 -0.2130144 -0.17340645 -0.15511644 0.34134534 0.20096624
00000000: e530 24be a1f2 ef3d e941 33be cb2c 11be
00000010: 64b8 043e ced6 ca3d 87da 063f 5674 4bbe
00000020: b92a d8bd bd81 8cbe a2f1 90be 7220 5abe
00000030: 7691 31be d8d6 1ebe d1c4 ae3e 18ca 4d3e

output.0.weight f4 [8, 16]
0.025146302 0.105009 0.23430215 0.2021107 0.081620336 0.14990096 -0.20900053 0.5216157
0.04265854 0.12646209 0.016394312 0.49495012 0.5003987 0.16789004 -0.18904655 0.15946975
0.007383473 0.0044838553 -0.09863436 0.30629253 0.32265046 0.30271515 0.13582078 0.32516336
-0.18704991 -0.12956274 0.14467172 -0.2532389 0.45533898 0.5136527 -0.12133534 0.19131874
-0.20511405 -0.079228185 -0.29626125 -0.31178358 -0.18923871 -0.6302396 0.61271685 -0.5423053
-0.050176583 -0.03505287 -0.1287642 -0.42253983 -0.33557418 -0.32190713 0.380865 -0.122925766
-0.012650959 -0.003993758 0.19815528 0.13010174 0.1634006 0.16487247 -0.41463444 0.3192827
0.08408267 0.16439185 -0.1289258 0.09124485 0.37825143 0.34840047 -0.09276912 -0.08608343
0.03898635 -0.32308996 -0.06916717 0.30284098 0.31413954 0.39719972 0.05659823 0.4285189
0.057843357 0.0016225183 0.2423017 0.2592488 0.4227851 0.54674965 -0.18822125 0.22292078
0.013103671 0.12422085 0.009826351 0.17545755 -0.29708013 0.21789461 0.066284046 0.0066218395
0.07582396 -0.14696251 0.20314492 0.34592357 -0.20678475 -0.18642147 -0.17966488 0.090049975
-0.22521159 -0.13481776 -0.093700305 0.23840608 0.02763808 -0.07827021 -0.12472488 -0.009077314
0.09444033 -0.13876826 -0.11842479 0.04237044 0.04283273 0.044255305 -0.05801645 -0.19921112
-0.027725708 0.03857151 -0.41522017 -0.27940834 0.039998442 -0.16135724 0.6811227 -0.33125553
-0.22760136 -0.065173365 -0.15026678 -0.4100158 -0.02527544 0.04897256 0.009157379 -0.1507152
00000000: 9eff cd3c f50e d73d e7ec 6f3e 1bf6 4e3e
00000010: 9028 a73d a37f 193e 3c04 56be 9b88 053f
00000020: b9ba 2e3d 477f 013e 5d4d 863c 1a6a fd3e
00000030: 211a 003f 5eeb 2b3e 6b95 41be 0a4c 233e
00000040: 10f1 f13b 4eed 923b d000 cabd 60d2 9c3e
00000050: 7132 a53e 7bfd 9a3e 9a14 0b3e d07b a63e
00000060: 038a 3fbe 18ac 04be d324 143e 87a8 81be
00000070: 3122 e93e be7e 033f aa7e f8bd 0fe9 433e
00000080: 6b09 52be 6342 a2bd 8eaf 97be 19a2 9fbe
00000090: cbc7 41be 6257 21bf 03db 1c3f 85d4 0abf
000000a0: f685 4dbd 9993 0fbd c3da 03be 2457 d8be
000000b0: 61d0 abbe 03d1 a4be bd00 c33e 81c0 fbbd
000000c0: f845 4fbc 12de 82bb 38e9 4a3e 6439 053e
000000d0: 7d52 273e 54d4 283e f74a d4be 0679 a33e
000000e0: 8933 ac3d 5656 283e 2005 04be 94de ba3d
000000f0: 2caa c13e 8c61 b23e bdfd bdbd 824c b0bd
00000100: 27b0 1f3d 0c6c a5be 84a7 8dbd f90d 9b3e
00000110: e6d6 a03e c35d cb3e 8cd3 673d d466 db3e
00000120: 28ed 6c3d aeaa d43a f01d 783e 42bc 843e
00000130: 4a77 d83e c9f7 0b3f 12bd 40be 5845 643e
00000140: c8b0 563c 8067 fe3d b4fe 203c 25ab 333e
00000150: e31a 98be c41f 5f3e eebf 873d 04fc d83b
00000160: 9849 9b3d 577d 16be 3905 503e e51c b13e
00000170: 62bf 53be 45e5 3ebe 12fa 37be 1f6c b83d
00000180: de9d 66be ab0d 0abe f2e5 bfbd b920 743e
00000190: 4169 e23c 224c a0bd c26f ffbd 04b9 14bc
000001a0: ef69 c13d 4419 0ebe b288 f2bd a08c 2d3d
000001b0: 5f71 2f3d 0d45 353d a8a2 6dbd 00fe 4bbe
000001c0: 0621 e3bc 29fd 1d3d bd97 d4be 9c0e 8fbe
000001d0: 68d5 233d d53a 25be 0f5e 2e3f 539a a9be
000001e0: 5510 69be 9d79 85bd 89df 19be 97ed d1be
000001f0: 710e cfbc 7397 483d d508 163c 1655 1abe

output.0.bias f4 [8]
-0.25123158 -0.22240563 0.29348484 -0.21005568 -0.17902298 -0.15211286 0.16829956 0.08976831
00000000: 6da1 80be 4dbe 63be a543 963e d618 57be
00000010: cd51 37be 79c3 1bbe b856 2c3e 73d8 b73d

output.2.weight f4 [4, 8]
0.14246252 0.70327526 -0.5146936 -0.19550622 0.4673777 -0.35811374 0.15295164 0.009054694
-0.38532397 -0.25459385 0.7220422 -0.5855855 -0.5527792 -0.0072983583 -0.13781393 0.5105357
0.07294035 -0.40613383 0.280353 -0.4675747 -0.14849763 0.33003142 -0.05458534 0.4559831
-0.0264023 0.1138125 0.27785888 -0.11211417 -0.5217904 -0.14812371 0.14954726 0.009467285
00000000: b2e1 113e d909 343f f6c2 03bf c832 48be
00000010: 214c ef3e af5a b7be 5b9f 1c3e 245a 143c
00000020: 2f49 c5be 205a 82be c2d7 383f eee8 15bf
00000030: f082 0dbf 1127 efbb 181f 0dbe 78b2 023f
00000040: c061 953d c6f0 cfbe 6e8a 8f3e f365 efbe
00000050: c30f 18be e1f9 a83e e194 5fbd 9e76 e93e
00000060: a349 d8bc 8716 e93d 8543 8e3e 1d9c e5bd
00000070: 0e94 05bf bead 17be eb22 193e ac1c 1b3c

output.2.bias f4 [4]
1.246258 0.16462025 -0.1439515 -0.080429845
00000000: 6285 9f3f 3692 283e 0668 13be 67b8 a4bd

output.4.weight f4 [1, 4]
-0.47566298 0.94136745 0.46801025 0.44074833
00000000: 198a f3be 75fd 703f 0a9f ef3e c4a9 e13e

exp_avg f4 [16, 4]
-0.00059903745 0.0045076907 -0.003061465 -0.0009927765 -0.009867314 -0.004370105 0.0027094646 -0.0010617634
0.04703261 0.013565099 -0.016197862 0.001732198 0.050787836 0.012395084 -0.023170158 0.0022983318
0.0568714 0.010800773 -0.018310362 0.0026888447 -0.00042944038 -0.0023097838 0.0032681765 6.179234e-05
0.0076931925 0.0027853143 -0.0051719258 0.00015696065 0.02538878 0.0053440905 -0.014146228 0.0015867956
0.026975702 0.0084551275 -0.011192442 0.0006921419 0.034281567 0.0097706085 -0.012494703 -0.00047712246
-0.038227733 -0.010447011 0.008025636 0.00033928044 0.022578442 0.004088274 -0.01030986 0.0015421945
-0.042907394 -0.010906544 0.020469861 -0.0010137771 -0.027886938 -0.0011261136 0.015332015 -0.0030270999
-0.0038130921 -8.81523e-05 -6.162626e-05 -0.00054771244 -0.044019543 -0.011265623 0.012501236 0.0002113843
00000000: b908 1dba 40b5 933b dca2 48bb 0d20 82ba
00000010: 84aa 21bc 1933 8fbb 4691 313b de2a 8bba
00000020: 44a5 403d 2640 5e3c 61b1 84bc ec0a e33a
00000030: e806 503d c014 4b3c 58cf bdbc 9c9f 163b
00000040: fcf1 683d baf5 303c 9dff 95bc 5437 303b
00000050: 8326 e1b9 be5f 17bb e72e 563b 8396 8138
00000060: 2d17 fc3b d289 363b 4279 a9bb ce95 2439
00000070: 21fc cf3c 7b1d af3b 95c5 67bc 06fc cf3a
00000080: 26fc dc3c 6087 0a3c 8160 37bc db70 353a
00000090: d46a 0c3d e714 203c 95b6 4cbc 4b26 fab9
000000a0: af94 1cbd f129 2bbc f57d 033c 73e1 b139
000000b0: 6df6 b83c eef6 853b b0ea 28bc 7623 ca3a
000000c0: aabf 2fbd 5cb1 32bc 69b0 a73c b7e0 84ba
000000d0: 2673 e4bc 1a9a 93ba 2233 7b3c 4f62 46bb
000000e0: 12e5 79bb 68de b8b8 593d 81b8 5c94 0fba
000000f0: d64d 34bd 7393 38bc fcd1 4c3c 0aa7 5d39

exp_avg_sq f4 [16, 4]
0.00022456485 0.00034800253 0.0004277718 4.255515e-06 0.00082336564 0.00015481305 0.00041163896 8.619407e-06
0.012374687 0.0014704131 0.0021779009 2.0788817e-05 0.010545037 0.0010053338 0.0025077607 2.857998e-05
0.013366999 0.0007843068 0.0023188828 3.367994e-05 1.6678056e-05 6.176396e-05 8.495368e-05 2.3441264e-07
0.00044978224 4.6042253e-05 0.00013139498 5.1396853e-07 0.0028267002 0.00015389318 0.00072071695 1.0253762e-05
0.0053602895 0.00067686505 0.0011535318 5.0388544e-06 0.010062558 0.0009767785 0.0023684436 5.7157567e-06
0.0070757633 0.0007986002 0.0014025652 3.537289e-06 0.0033351132 0.00019963684 0.0006705219 1.26465375e-05
0.010475141 0.0009485589 0.002139039 9.273243e-06 0.0043219025 0.00020617615 0.0017039449 4.038459e-05
0.00061091664 0.00014861696 0.0002880009 2.4064752e-06 0.011888492 0.0010295467 0.0021613543 5.04857e-06
00000000: 2b79 6b39 1c74 b639 8f46 e039 98ca 8e36
00000010: 22d7 573a 5055 2239 3fd1 d739 129c 1037
00000020: 33bf 4a3c e0ba c03a 1dbb 0e3b a563 ae37
00000030: 17c5 2c3c 68c5 833a 3e59 243b 0abf ef37
00000040: 4201 5b3c f099 4d3a 66f8 173b 8f43 0d38
00000050: dae7 8b37 4687 8138 2929 b238 dbb2 7b34
00000060: c0d0 eb39 7e1d 4138 12c7 0939 a6f7 0935
00000070: 2940 393b 635e 2139 7fee 3c3a 9307 2c37
00000080: 5ea5 af3b a56f 313a 1b32 973a 6e13 a936
00000090: 6ddd 243c 3f07 803a e437 1b3b fac9 bf36
000000a0: cedb e73b 2759 513a 47d6 b73a 2a62 6d36
000000b0: ea91 5a3b 9b55 5139 f7c5 2f3a 772c 5437
000000c0: ed9f 2b3c b6a8 783a 1f2f 0c3b 4794 1b37
000000d0: bf9e 8d3b fd30 5839 e756 df3a a062 2938
000000e0: ec25 203a 10d6 1b39 d4fe 9639 ee7e 2136
000000f0: f3c7 423c dbf1 863a 82a5 0d3b e366 a936

exp_avg f4 [16]
-0.0074328105 -0.007751419 0.012291595 0.016494084 0.01946803 0.00047965243 0.001152264 0.011363517
0.0046923137 -0.0036706536 0.0019292266 0.01110964 -0.0074367654 -0.022258595 -0.0041456795 0.0010553162
00000000: ef8e f3bb 9eff fdbb b062 493c 9a1e 873c
00000010: 6b7b 9f3c dc79 fb39 9007 973a 0b2e 3a3c
00000020: fbc1 993b 598f 70bb 1ade fc3a 3505 363c
00000030: 1cb0 f3bb a857 b6bc 7bd8 87bb 8952 8a3a

exp_avg_sq f4 [16]
0.00022214114 0.00045155233 0.0010371875 0.0014570531 0.0017448743 1.0584906e-05 2.4810535e-05 0.00053280673
0.00023611764 0.00027307685 0.00015697455 0.0006624259 0.00044275494 0.002149685 0.00012855983 0.00022903296
00000000: 8fee 6839 54be ec39 3df2 873a 97fa be3a
00000010: 44b4 e43a d395 3137 3820 d037 0eac 0b3a
00000020: 5996 7739 c12b 8f39 8999 2439 a6a6 2d3a
00000030: 9021 e839 bbe1 0c3b 04ce 0639 9128 7039

exp_avg f4 [16, 16]
0.0012092924 0.0005322397 0.0009983062 0.00012120054 0.0007370061 0.0016324935 0.00043339375 -0.0013305915
-0.0018073178 -0.00055077195 -0.0033477314 -0.0013831623 -0.0039370386 -0.0012695752 -3.9749575e-05 -0.000801804
-0.001009877 0.003841448 -0.00041422594 -0.0033364967 -0.0012555255 0.002006204 -0.0026298158 -0.0062461463
-0.003161307 -0.0020613787 0.0016521658 -0.0034139054 -0.0025923408 0.00014393457 0.0009072998 0.002387984
0.0013858669 -0.007659921 -0.0002153537 0.0076238005 0.0015252661 -0.006429581 0.0038321544 0.015919175
0.011714241 0.006064334 0.0047867903 0.010560942 0.014212019 0.0041609295 -0.000977561 -0.0026819112
-0.00076541665 0.0049788915 0.000773931 -0.0019549076 0.0008276109 0.0048166546 -0.0022475105 -0.0058326493
-0.005516039 -0.003942707 -0.0004339708 -0.0030100318 -0.00544906 -0.004102092 0.000308093 0.0021880453
0.0016679728 -0.0015824477 0.0014262466 0.0017524108 0.000920905 -2.6961032e-05 0.0014512963 0.0014066986
0.000909462 0.0012833782 -0.00322824 0.0002507647 -0.0021040065 -0.00019105642 0.00015952492 -0.0016914075
0.00016554308 0.0035078356 0.0031069012 0.0015262745 0.003987518 0.0065145683 -0.0018432947 -0.0037518868
-0.0056658597 -0.00411012 -0.0047591724 -0.0013252917 -0.010691834 -0.009307377 -0.00042794045 0.00029025585
0.00021896094 0.007193627 -0.0007261719 -0.006549326 -0.0021430799 0.0053583225 -0.0032807335 -0.01213185
-0.009377665 -0.0045747887 -0.0024503006 -0.008797056 -0.008042316 -0.001079207 -0.0005440015 0.00281036
0.0017590472 0.00025874143 0.003617222 0.002762821 0.0035970267 0.0040819086 0.0007523764 -0.00090679445
-0.0028743849 -0.0014708933 -0.006681705 -0.00061442645 -0.009204667 -0.0064752433 0.00012782057 -0.0016780804
0.0018529476 0.0010363016 0.0034679628 0.0020227465 0.0031985273 0.004174027 0.0001285084 -0.0021504587
-0.0030143724 -0.0013471085 -0.007309864 -0.0014318543 -0.010224973 -0.0052048885 0.00068689755 -0.0018947535
0.0013121741 -0.00836501 -0.00067071355 0.005503697 -0.0002924125 -0.007636515 0.0037080208 0.013052496
0.011119715 0.0069932323 0.0025655935 0.007681046 0.012593212 0.0060525476 -0.0007159573 -0.0034653908
-0.0010638018 -0.00070782774 -0.0018052004 -0.0010631562 -0.0013739055 -0.0014005087 5.5930002e-05 0.0007608449
0.00054109405 1.2159336e-06 0.0033593117 0.00042024633 0.0046817907 0.00094070897 -0.0012329414 0.0011679287
0.0019307897 -0.00014706484 0.0028468291 0.0028370917 0.0027571318 0.0026875692 0.0016161787 0.00086791697
-0.0011298532 -0.00029751856 -0.005466687 0.00014903417 -0.005801609 -0.0037352634 0.0002358119 -0.0018611427
-0.0012310165 0.0015560628 -0.0009161738 -0.0019619241 -0.0011085173 0.0002511574 -0.0012272914 -0.0025322768
-0.0014276863 -0.00096499774 0.0016922605 -0.0014600968 0.00031649775 0.00036856622 -5.7342655e-05 0.0013587619
0.00055441365 -0.0015683181 0.00037148138 0.0015098465 0.00040783253 -0.0011356359 0.0011421415 0.0027870599
0.0017883176 0.0012675816 -0.00038997398 0.0014901133 0.0013027028 0.0005230605 5.0079365e-05 -0.0009839584
0.00078284903 0.004301439 0.0014007343 -0.0030347575 -2.7380727e-06 0.004608956 -0.0014275247 -0.00841549
-0.006574126 -0.0029099083 -0.0049101473 -0.006045535 -0.0097267 -0.002445269 0.00068538514 0.0006824574
6.9091875e-05 0.0050573037 -0.0004136852 -0.0057424926 -0.0021930952 0.003947603 -0.0017724966 -0.010672212
-0.008145308 -0.00318462 -0.0042763576 -0.008475371 -0.008222784 -0.00062322506 -0.00032758043 0.0014099046
00000000: 1f81 9e3a 0086 0b3a 99d9 823a 0b2d fe38
00000010: a433 413a 64f9 d53a 2039 e339 3e67 aeba
00000020: 86e3 ecba ae61 10ba 9d65 5bbb 3a4b b5ba
00000030: 4602 81bb e067 a6ba c8b8 26b8 2830 52ba
00000040: d95d 84ba cec0 7b3b 772c d9b9 20a9 5abb
00000050: 7290 a4ba 857a 033b fd58 2cbb 79ac ccbb
00000060: ee2d 4fbb 3218 07bb 7c8d d83a d4bb 5fbb
00000070: 43e4 29bb 24ed 1639 dcd7 6d3a b97f 1c3b
00000080: faa5 b53a 1300 fbbb 92d0 61b9 13d1 f93b
00000090: 70eb c73a 3caf d2bb e224 7b3b ee68 823c
000000a0: 16ed 3f3c 52b7 c63b 82da 9c3b cd07 2d3c
000000b0: 87d9 683c 6858 883b 8121 80ba 01c3 2fbb
000000c0: 3ea6 48ba f825 a33b a1e1 4a3a e81d 00bb
000000d0: 07f4 583a 07d5 9d3b f84a 13bb cf1f bfbb
000000e0: e4bf b4bb d331 81bb 9386 e3b9 f443 45bb
000000f0: 078e b2bb d76a 86bb 8b87 a139 4f65 0f3b
00000100: e19f da3a 226a cfba e5f0 ba3a 26b1 e53a
00000110: e368 713a 602a e2b7 6c39 be3a f960 b83a
00000120: f668 6e3a 0737 a83a e190 53bb 1179 8339
00000130: 5fe3 09bb 5156 48b9 2546 2739 38b2 ddba
00000140: a295 2d39 b7e3 653b 279d 4b3b 460d c83a
00000150: baa9 823b 2978 d53b b59a f1ba 37e2 75bb
00000160: ada8 b9bb 2fae 86bb d5f2 9bbb 69b5 adba
00000170: cd2c 2fbc f87d 18bc 325d e0b9 7b2d 9839
00000180: e198 6539 84b8 eb3b 925c 3eba ba9b d6bb
00000190: ea72 0cbb de94 af3b 9301 57bb abc4 46bc
000001a0: c7a4 19bc 1ce8 95bb 3995 20bb 8721 10bc
000001b0: ebc3 03bc 2e74 8dba 539b 0eba 042e 383b
000001c0: d48f e63a b0a7 8739 ea0e 6d3b 7210 353b
000001d0: 18bc 6b3b 88c1 853b 203b 453a f2b5 6dba
000001e0: 2d60 3cbb fdca c0ba 34f2 dabb 7611 21ba
000001f0: 2ccf 16bc 472e d4bb 9307 0639 09f3 dbba
00000200: 9bde f23a 83d4 873a c346 633b 0e90 043b
00000210: 629e 513b 47c6 883b 36c0 0639 b6ee 0cbb
00000220: c78c 45bb 7691 b0ba 9587 efbb 0fad bbba
00000230: a586 27bc c58d aabb ea10 343a 6159 f8ba
00000240: 42fd ab3a 650d 09bc d3d2 2fba 5b58 b43b
00000250: f14e 99b9 bb3b fabb 4402 733b 23da 553c
00000260: 772f 363c 7c27 e53b 8423 283b 49b1 fb3b
00000270: c253 4e3c 7354 c63b 15af 3bba 9c1b 63bb
00000280: 446f 8bba 848d 39ba 799c ecba 9a59 8bba
00000290: 9e14 b4ba 4691 b7ba 6296 6a38 7073 473a
000002a0: 35d8 0d3a 2933 a335 e627 5c3b 8254 dc39
000002b0: b569 993b e999 763a a69a a1ba 2f15 993a
000002c0: 8d12 fd3a 6b35 1ab9 de91 3a3b 80ee 393b
000002d0: ffb0 343b ee21 303b f5d5 d33a ec84 633a
000002e0: 9517 94ba 44fc 9bb9 e521 b3bb 0e46 1c39
000002f0: 6c1b bebb 52cb 74bb 4644 7739 96f1 f3ba
00000300: 0f5a a1ba cef4 cb3a 622b 70ba a093 00bb
00000310: ab4b 91ba c7ad 8339 11dd a0ba 8ef4 25bb
00000320: 3421 bbba e7f7 7cba d7ce dd3a b860 bfba
00000330: 9cef a539 1f3c c139 3583 70b8 7c18 b23a
00000340: 1256 113a 0690 cdba 63c3 c239 0be6 c53a
00000350: 5bd2 d539 9ed9 94ba e9b3 953a 1ba7 363b
00000360: fb65 ea3a fb24 a63a 6c75 ccb9 e84f c33a
00000370: 74bf aa3a ff1d 093a 4f0c 5238 2af8 80ba
00000380: 1c38 4d3a 16f3 8c3b d898 b73a c8e2 46bb
00000390: bbbf 37b6 ba06 973b c81b bbba 20e1 09bc
000003a0: c46b d7bb 29b4 3ebb 4de5 a0bb a019 c6bb
000003b0: bd5c 1fbc ce40 20bb 6bab 333a f1e6 323a
000003c0: 6be5 9038 bdb7 a53b e3e3 d8b9 852b bcbb
000003d0: 08ba 0fbb e55a 813b 1e53 e8ba 80da 2ebc
000003e0: e673 05bc 0fb5 50bb b020 8cbb 48dc 0abc
000003f0: dbb8 06bc ed5f 23ba 1abf abb9 8ccc b83a

exp_avg_sq f4 [16, 16]
1.300351e-05 1.3563261e-05 4.6749774e-06 0.00020238556 7.3395146e-05 1.37725665e-05 9.483562e-06 0.00061693345
0.00023423202 2.495986e-06 0.00059333444 0.00057877105 0.00070559955 3.0100107e-05 9.250198e-06 2.8775881e-05
1.2594685e-05 6.947538e-05 1.2719671e-05 0.00014210553 3.3153843e-05 3.0484469e-05 2.6699878e-05 0.00041646382
0.00024749123 3.6756046e-05 0.00019911105 0.00029307415 0.00028777515 3.3635322e-05 4.100975e-05 3.0244226e-05
0.00013917494 0.00021897104 8.560884e-05 0.00039469378 8.853394e-05 0.00025534403 0.00011572922 0.0012804649
0.0012754845 0.00024431612 0.0013400951 0.001140333 0.0016719287 0.0003949387 0.00022635385 9.688424e-05
2.109674e-05 9.5212476e-05 9.108221e-06 2.8786973e-05 6.753509e-06 9.823047e-05 2.7777576e-05 0.00013580783
0.0002311705 8.4839376e-05 0.00013193749 9.977925e-05 0.00018775744 0.0001455031 4.4838118e-05 3.339174e-05
1.4505698e-05 1.829925e-05 1.6000287e-05 1.9912593e-05 5.359938e-06 5.2774258e-06 1.5125148e-05 2.1452064e-05
3.811042e-05 1.5890448e-05 4.6931124e-05 1.2844907e-05 2.3537994e-05 1.2279252e-05 1.7789851e-05 1.4354219e-05
4.0189254e-05 9.6817304e-05 5.2352298e-05 1.6485661e-05 5.5851076e-05 0.00024764254 5.2242594e-05 0.00011591604
0.0004223189 0.000120010736 0.00041246516 8.9897374e-05 0.00067395595 0.00047275325 0.00011385183 2.913869e-05
3.0741052e-05 0.00024049217 4.4841297e-05 0.00017367142 2.9729668e-05 0.00014489444 7.561481e-05 0.00049034547
0.0006425446 0.00016437998 0.000361527 0.00036744963 0.0003574576 0.00015788469 0.00016251246 9.049149e-05
6.300134e-05 5.6061377e-05 9.677554e-05 7.6310964e-05 6.8349436e-05 9.432638e-05 8.370765e-05 4.835243e-05
0.00028695547 4.9472997e-05 0.0006367445 9.944626e-05 0.0004849475 0.0003153166 0.00016735528 7.4614065e-05
3.9972798e-05 3.7450805e-05 5.2336207e-05 5.824282e-05 4.792966e-05 7.2018265e-05 4.529708e-05 0.000117083444
0.00015076036 2.138889e-05 0.0005915227 0.00018842221 0.0006653733 0.00020031599 6.31846e-05 6.6733926e-05
0.00013219075 0.00023370581 0.00011730217 0.00025570064 9.039138e-05 0.0002874983 0.000113905306 0.0007534054
0.0010644147 0.00032521193 0.0009575717 0.0007149271 0.0010607112 0.0006047944 0.00029109206 0.00011948523
1.0873287e-05 1.0762224e-05 1.2505502e-05 5.368591e-05 1.9028343e-05 1.13991055e-05 1.4067089e-05 0.000113111004
7.4497875e-05 2.5143995e-06 0.00021911605 0.000166812 0.00025765965 1.8133367e-05 1.061386e-05 1.9363086e-05
6.215898e-05 9.69216e-05 8.9132795e-05 0.00018577425 8.0675156e-05 4.0560582e-05 6.452317e-05 0.00027907058
0.00032386786 3.6015743e-05 0.00077720184 0.0003484124 0.0004815419 0.00012143451 0.000107613356 0.00010548725
7.4869154e-06 2.8587505e-05 7.1219692e-06 7.822271e-05 2.044127e-05 7.1663057e-06 1.2956917e-05 0.0002601816
9.801857e-05 9.851613e-06 0.00016847247 0.00018573749 0.0002541943 1.3658103e-05 2.3469276e-05 1.771396e-05
3.0030276e-06 1.06991265e-05 4.81561e-06 1.4988088e-05 3.2449386e-06 6.8785344e-06 6.9702646e-06 4.2974436e-05
3.2337142e-05 9.270155e-06 1.25133265e-05 2.2582262e-05 2.9343386e-05 1.0234136e-05 8.731018e-06 3.929344e-06
4.9504393e-05 7.650114e-05 1.4189636e-05 0.00018943087 5.8141934e-05 9.7312404e-05 4.022971e-05 0.00073409727
0.00045195813 5.404233e-05 0.00090878044 0.0007411241 0.0011989169 0.00013444945 4.557322e-05 5.7837664e-05
1.9904592e-05 0.0001202843 1.1551094e-05 0.00013980175 2.8770162e-05 6.7611814e-05 3.2784465e-05 0.00045206238
0.00033703475 5.0760686e-05 0.00029923432 0.0003640344 0.0004162022 3.9976083e-05 4.4350654e-05 3.4007917e-05
00000000: a629 5a37 c38d 6337 c0dd 9c36 7637 5439
00000010: b8eb 9938 b910 6737 971b 1f37 b4b9 213a
00000020: 2e9c 7539 b780 2736 008a 1b3a abb8 173a
00000030: fcf7 383a 7d7f fc37 4c31 1b37 bc63 f137
00000040: c34d 5337 50b3 9138 9266 5537 2a02 1539
00000050: ab0e 0b38 e6b8 ff37 8df9 df37 d458 da39
00000060: b6c1 8139 812a 1a38 77c8 5039 bfa7 9939
00000070: 87e0 9639 a713 0d38 e201 2c38 fbb4 fd37
00000080: 7def 1139 979b 6539 e588 b338 e7ee ce39
00000090: 4cab b938 b2df 8539 a7b3 f238 46d5 a73a
000000a0: 282e a73a 8e17 8039 21a6 af3a 3a77 953a
000000b0: 9e24 db3a c60f cf39 6659 6d39 552e cb38
000000c0: e7f8 b037 cfac c738 83cf 1837 8e7b f137
000000d0: 339c e236 1501 ce38 e403 e937 a367 0e39
000000e0: 5c66 7239 cbeb b138 b358 0a39 9440 d138
000000f0: c1e0 4439 3192 1839 9010 3c38 1c0e 0c38
00000100: 805d 7337 5781 9937 5b38 8637 f809 a737
00000110: 84d9 b336 be14 b136 04c2 7d37 f5f3 b337
00000120: c0d8 1f38 7a4c 8537 e9d7 4438 7580 5737
00000130: 7573 c537 fc02 4e37 6a3b 9537 e7d2 7037
00000140: e290 2838 650a cb38 da94 5b38 b04a 8a37
00000150: a341 6a38 05d6 8139 0f1f 5b38 f317 f338
00000160: af6a dd39 46ae fb38 2340 d839 4987 bc38
00000170: 6bac 303a dedb f739 bcc3 ee38 dc6e f437
00000180: f4ef 0038 a02c 7c39 fa13 3c38 911b 3639
00000190: fa63 f937 ceee 1739 6493 9e38 878a 003a
000001a0: 7070 283a 6a5d 2c39 558b bd39 41a6 c039
000001b0: 2669 bb39 d98d 2539 1b68 2a39 40c6 bd38
000001c0: 961f 8438 7223 6b38 f9f3 ca38 2309 a038
000001d0: d356 8f38 17d1 c538 348c af38 07ce 4a38
000001e0: 8372 9639 3a81 4f38 33eb 263a ce8d d038
000001f0: 8d40 fe39 1451 a539 177c 2f39 1f7a 9c38
00000200: 77a8 2738 7f14 1d38 9383 5b38 c049 7438
00000210: 1508 4938 8308 9738 5ffd 3d38 b28a f538
00000220: 6d15 1e39 4b6c b337 6b10 1b3a 3493 4539
00000230: 726c 2e3a ea0b 5239 f981 8438 81f3 8b38
00000240: af9c 0a39 ed0e 7539 1f00 f638 8f0f 8639
00000250: 8190 bd38 5ebb 9639 72e0 ee38 2e80 453a
00000260: d583 8b3a 3581 aa39 8d05 7b3a f269 3b3a
00000270: 9007 8b3a 118b 1e3a b79d 9839 2594 fa38
00000280: 696c 3637 668f 3437 b9ce 5137 cf2c 6138
00000290: 0e9f 9f37 c93e 3f37 b001 6c37 0236 ed38
000002a0: be3b 9c38 0ebd 2836 84c2 6539 41ea 2e39
000002b0: 7e16 8739 1c1d 9837 2e12 3237 e96d a237
000002c0: 595b 8238 6342 cb38 ceec ba38 65cc 4239
000002d0: 2530 a938 981f 2a38 9d50 8738 3850 9239
000002e0: cfcc a939 9c0f 1738 22bd 4b3a 1fab b639
000002f0: 7677 fc39 a8aa fe38 7bae e138 0939 dd38
00000300: 1d38 fb36 33cf ef37 40f9 ee36 7f0b a438
00000310: 4b79 ab37 1976 f036 8961 5937 fc68 8839
00000320: 528f cd38 5b48 2537 fca7 3039 87c2 4239
00000330: 6245 8539 1b25 6537 e3df c437 7098 9437
00000340: 9f87 4936 6680 3337 c695 a136 5975 7b37
00000350: 9fc3 5936 29ce e636 1ee2 e936 733f 3438
00000360: bea1 0738 0387 1b37 54f0 5137 0a6f bd37
00000370: 7126 f637 48b3 2b37 707b 1237 cfd8 8336
00000380: f0a2 4f38 3d6f a038 0610 6e37 f6a1 4639
00000390: 6ddd 7338 3314 cc38 52bc 2838 6f70 403a
000003a0: cbf4 ec39 83ab 6238 393b 6e3a ff47 423a
000003b0: fa24 9d3a 00fb 0c39 df25 3f38 b896 7238
000003c0: c9f8 a637 2441 fc38 92cb 4137 bf97 1239
000003d0: 7457 f137 d1ca 8d38 0d82 0938 c902 ed39
000003e0: 0ab4 b039 dfe7 5438 8de2 9c39 dfdb be39
000003f0: b735 da39 feab 2738 2705 3a38 b9a3 0e38

exp_avg f4 [16]
-0.0029851976 -0.000780784 0.007882035 -0.0061125834 -0.0012416763 -0.012553307 -0.0039180717 -0.009541653
-0.009281516 0.010204836 0.0036023208 -0.0062750266 0.00085706974 0.00076289027 -0.006079644 -0.0030345174
00000000: 4ea3 43bb 87ad 4cba a723 013c 114c c8bb
00000010: bebf a2ba 63ac 4dbc 2b63 80bb 9854 1cbc
00000020: 8011 18bc 2f32 273c ea14 6c3b bd9e cdbb
00000030: faac 603a b3fc 473a c037 c7bb c1de 46bb

exp_avg_sq f4 [16]
3.7675334e-05 2.3358265e-05 0.00044462955 0.00015580794 1.3306146e-05 0.00074511743 0.0001303668 0.00048723185
0.00037275263 0.00057260186 4.7907997e-05 0.00018894947 5.472442e-06 9.719237e-06 0.00016917425 4.5754077e-05
00000000: 9505 1e38 7ef1 c337 2b1d e939 6060 2339
00000010: 763d 5f37 fc53 433a 12b3 0839 2773 ff39
00000020: 036e c339 a91a 163a d2f0 4838 bd20 4639
00000030: eb9f b736 ce0f 2337 5e64 3139 11e8 3f38

exp_avg f4 [16, 32]
0.0006243277 0.002247424 -0.0002878348 0.0019884382 0.00026879573 0.00202395 0.004395303 0.0009286053
0.0002715833 -0.00023415001 0.0010968064 -0.00020472001 0.00089011487 0.000384396 0.0015914842 0.0020666241
0.00010702368 0.00032292298 -0.00036830216 -0.00018786213 -0.00051005115 -0.000455991 0.0004044714 -0.00086847285
-0.00018685948 -0.00021399152 0.00025002254 -0.00039934128 -0.0003544368 -0.00022757525 0.00030092825 -0.00014830459
-0.002519129 -0.0051858393 -0.00050753134 -0.0036012263 -0.00041942846 -0.005008541 -0.006798862 -0.0027747953
-0.0013336128 0.00025608175 -0.0038801676 -0.004218899 -0.0053523886 -0.00081755227 -0.0035079322 -0.0037999726
-0.00027862086 -0.00090891804 0.0013959766 -0.0015756441 0.0009667781 0.00017534508 -0.0030228677 0.0018263169
0.00010477508 0.0010995707 -0.0006850374 0.0031050823 0.0014343179 0.000522612 -0.00061747065 -0.000769286
0.0056747617 0.0065040835 0.0021287932 0.005943271 0.0018435585 0.007794786 0.010412901 0.0055935956
0.0031033969 0.0023442835 0.006955922 0.008285682 0.003895415 0.0012367187 0.004458309 0.0034849322
-0.0016860404 0.0036846406 -0.004414076 0.0038105263 -0.0023576268 0.00171718 0.00924773 -0.0022730867
-5.1210395e-06 -0.0045965803 -0.0018937985 -0.0045397305 -0.00034368655 -0.0031797981 0.0009235077 0.004070816
-0.002831044 0.005548181 0.00013122204 0.0011138252 0.0030542943 0.006361125 0.0125194965 0.005560822
-0.0016623476 0.0013429621 -0.0020614134 -0.0026260884 0.002303603 0.0025926768 0.0069614826 0.005624579
0.00076471735 0.0010413281 -0.0006574489 -0.0014548094 -0.0014878707 -0.0024275307 0.0014317915 -0.0019955963
-0.00084448594 0.0009537801 0.0009116274 -0.00046217162 -0.0013603668 -0.0017006478 0.0010427823 -0.0018298815
0.0039486913 0.0079319915 0.0014466716 0.00777986 0.003290953 0.013405569 0.01395123 0.0083181
0.0032377732 0.0010440502 0.005201952 0.007448449 0.0058226315 0.003759074 0.00679346 0.0075566205
-0.0014101306 0.0041902 -0.004541096 0.0032428787 -0.0034070376 0.00060350035 0.009472697 -0.0034171771
-0.0010725831 -0.004241885 -0.0005149598 -0.0048132 -0.00034826057 -0.0036633473 0.0020813535 0.0040090648
-0.0042360034 0.005518568 0.0012921226 -0.0024281295 0.0044922456 0.006769785 0.012762154 0.006955628
-0.003686285 0.0033038913 -0.0026383318 -0.004563663 0.0019130225 0.0043425784 0.010072715 0.0052075707
0.0009732538 -0.0011658053 -0.000696591 0.0017789732 -0.0019321742 -2.0475802e-05 0.00095599564 -0.0022178062
0.00049380073 0.0019481357 0.0019770626 -0.0012870592 -0.0007217062 0.00081212755 -0.0013331629 -8.624905e-05
-0.000115020295 -0.009385845 -0.0007773812 0.0006382835 -0.0026322359 -0.008864646 -0.014862308 -0.004918958
0.003076148 -0.0015125185 -0.004394439 0.0031135567 -0.00652871 -0.0053866724 -0.013517629 -0.0071865395
0.00041848078 -0.0006282766 0.0018112272 -0.0017711357 0.0009790029 -0.0016605358 -0.0040887482 0.00081130303
0.00051697175 0.0012894863 -0.0007604407 0.0024090814 9.4953684e-05 -0.0005572791 -0.0010221383 -0.0017946939
0.004338129 0.017939966 0.0014147748 0.010769376 0.0048485403 0.019811528 0.031342957 0.013704235
0.0028136778 0.0018259457 0.007203738 0.00869361 0.010961048 0.0037967984 0.014995974 0.0140120415
-0.0018108031 0.0075731026 -0.0065795025 0.0024675946 -0.0056763426 -0.00045253878 0.015017041 -0.0067879967
-0.0014147051 -0.006215081 -0.0018360075 -0.005291636 -0.0014351655 -0.006349333 0.004175523 0.003974397
00000000: eca9 233a 8549 133b 88e8 96b9 7550 023b
00000010: 27ed 8c39 3fa4 043b 7906 903b a66d 733a
00000020: 4b63 8e39 2a86 75b9 b7c2 8f3a 1caa 56b9
00000030: 9956 693a c288 c939 5999 d03a 3370 073b
00000040: e771 e038 fd4d a939 ae18 c1b9 dbfc 44b9
00000050: f4b4 05ba 1312 efb9 3b0f d439 3aaa 63ba
00000060: b6ef 43b9 e962 60b9 7515 8339 ae5e d1b9
00000070: b4d3 b9b9 44a1 6eb9 e8c5 9d39 3682 1bb9
00000080: f917 25bb f9ed a9bb da0b 05ba 8d02 6cbb
00000090: bce6 dbb9 b01e a4bb fdc8 debb 57d9 35bb
000000a0: 9fcc aeba b642 8639 694a 7ebb b13e 8abb
000000b0: 1763 afbb 0151 56ba 56e5 65bb f608 79bb
000000c0: dc13 92b9 7544 6eba 34f9 b63a d885 ceba
000000d0: 616f 7d3a d6dc 3739 4e1b 46bb 0761 ef3a
000000e0: b1ba db38 781f 903a 1594 33ba a37e 4b3b
000000f0: b9ff bb3a e6ff 083a c1dd 21ba e9a9 49ba
00000100: 5af3 b93b 3520 d53b 3983 0b3b c5bf c23b
00000110: 8fa3 f13a 676b ff3b df9a 2a3c 7b4a b73b
00000120: 5c62 4b3b 8da2 193b 81ee e33b abc0 073c
00000130: 384a 7f3b 6519 a23a 0217 923b 7663 643b
00000140: 21fe dcba 037a 713b f4a3 90bb 06ba 793b
00000150: 6a82 1abb 0013 e13a ca83 173c 11f8 14bb
00000160: 65d5 abb6 e99e 96bb 5539 f8ba 05c2 94bb
00000170: d430 b4b9 2964 50bb 8d17 723a 7b64 853b
00000180: 0989 39bb 84cd b53b a698 0939 c6fd 913a
00000190: 8e2a 483b fc70 d03b 931e 4d3c 8e37 b63b
000001a0: 21e3 d9ba 5506 b03a c718 07bb 741a 2cbb
000001b0: 0cf8 163b e6e9 293b 261d e43b 634e b83b
000001c0: 5077 483a 2c7d 883a a658 2cba 4eaf beba
000001d0: a804 c3ba 3517 1fbb f3aa bb3a 8dc8 02bb
000001e0: 7e60 5dba 1907 7a3a 47fa 6e3a a04f f2b9
000001f0: 564e b2ba 45e8 deba f8ad 883a a2d8 efba
00000200: 0664 813b 2ff5 013c 3e9e bd3a 32ee fe3b
00000210: 08ad 573b 08a3 5b3c b393 643c a448 083c
00000220: d230 543b 83d8 883a 2375 aa3b 1e12 f43b
00000230: c6cb be3b cc5a 763b ac9b de3b 879d f73b
00000240: 22d4 b8ba f24d 893b 79cd 94bb 7a86 543b
00000250: 9b48 5fbb 3934 1e3a 5f33 1b3c b8f2 5fbb
00000260: eb95 8cba 83ff 8abb 5efe 06ba 0cb8 9dbb
00000270: be96 b6b9 c514 70bb 5167 083b 795e 833b
00000280: 2cce 8abb 1bd5 b43b 715c a93a 4121 1fbb
00000290: b033 933b 13d5 dd3b 5b18 513c 09ec e33b
000002a0: 9a95 71bb 1986 583b dde7 2cbb c88a 95bb
000002b0: 62be fa3a 304c 8e3b 0708 253c 45a4 aa3b
000002c0: f521 7f3a efcd 98ba 6e9b 36ba 6f2c e93a
000002d0: 0241 fdba 73c3 abb7 c89b 7a3a 9d58 11bb
000002e0: 6872 013a 9658 ff3a 9b91 013b 8ab2 a8ba
000002f0: e230 3dba f5e4 543a 86bd aeba 9be0 b4b8
00000300: 0d37 f1b8 16c7 19bc 2bc9 4bba 7b52 273a
00000310: 9781 2cbb 053d 11bc 0a81 73bc 362f a1bb
00000320: 3399 493b b33f c6ba 3aff 8fbb d00c 4c3b
00000330: caee d5bb af82 b0bb 0c79 5dbc 107d ebbb
00000340: 8a67 db39 eeb2 24ba b366 ed3a 7425 e8ba
00000350: e351 803a 56a6 d9ba e8fa 85bb a0ad 543a
00000360: 6385 073a fb03 a93a 5058 47ba aee1 1d3b
00000370: df21 c738 5e16 12ba 45f9 85ba ef3b ebba
00000380: dd26 8e3b d6f6 923c f76f b93a 0972 303c
00000390: 81e0 9e3b c94b a23c 7961 003d ba87 603c
000003a0: ae65 383b 9254 ef3a 560d ec3b a56f 0e3c
000003b0: f895 333c b5d3 783b acb1 753c c392 653c
000003c0: 7858 edba ca27 f83b de98 d7bb 5eb7 213b
000003d0: 9d00 babb ba42 edb9 090a 763c d86d debb
000003e0: a06d b9ba e1a7 cbbb 30a6 f0ba 7665 adbb
000003f0: 2a1c bcba 110e d0bb d3d2 883b a93b 823b
